…
I0928 17:57:28.664463 19368 caffe.cpp:241] GPU device name: TITAN X (Pascal)
I0928 17:57:30.052783 19368 net.cpp:49] Initializing net from parameters: 
name: "resnet"
state {
  phase: TEST
}
layer {
  name: "data"
  type: "ImageSegData"
  top: "data"
  top: "label"
  top: "data_dim"
  include {
    phase: TEST
  }
  transform_param {
    mirror: false
    mean_value: 104.008
    mean_value: 116.669
    mean_value: 122.675
    crop_width: 513
    crop_height: 481
  }
  image_data_param {
    source: "NYUdepth/list/val.txt"
    batch_size: 1
    root_folder: "../NYU_depth_v2/NYUdepth"
    label_type: NONE
  }
}
layer {
  name: "data_res05"
  type: "Interp"
  bottom: "data"
  top: "data_res05"
  interp_param {
    shrink_factor: 2
    pad_beg: 0
    pad_end: 0
  }
}
layer {
  name: "data_res075"
  type: "Interp"
  bottom: "data"
  top: "data_res075"
  interp_param {
    zoom_factor: 3
    shrink_factor: 4
    pad_beg: 0
    pad_end: 0
  }
}
layer {
  name: "conv1"
  type: "Convolution"
  bottom: "data"
  top: "conv1"
  param {
    name: "conv1_0"
    lr_mult: 1
    decay_mult: 1
  }
  convolution_param {
    num_output: 64
    bias_term: false
    pad: 3
    kernel_size: 7
    stride: 2
  }
}
layer {
  name: "bn_conv1"
  type: "BatchNorm"
  bottom: "conv1"
  top: "conv1"
  param {
    name: "bn_conv1_0"
    lr_mult: 0
  }
  param {
    name: "bn_conv1_1"
    lr_mult: 0
  }
  param {
    name: "bn_conv1_2"
    lr_mult: 0
  }
  batch_norm_param {
    use_global_stats: true
  }
}
layer {
  name: "scale_conv1"
  type: "Scale"
  bottom: "conv1"
  top: "conv1"
  param {
    name: "scale_conv1_0"
    lr_mult: 0
  }
  param {
    name: "scale_conv1_1"
    lr_mult: 0
  }
  scale_param {
    bias_term: true
  }
}
layer {
  name: "conv1_relu"
  type: "ReLU"
  bottom: "conv1"
  top: "conv1"
}
layer {
  name: "pool1"
  type: "Pooling"
  bottom: "conv1"
  top: "pool1"
  pooling_param {
    pool: MAX
    kernel_size: 3
    stride: 2
    pad: 1
  }
}
layer {
  name: "res2a_branch1"
  type: "Convolution"
  bottom: "pool1"
  top: "res2a_branch1"
  param {
    name: "res2a_branch1_0"
    lr_mult: 1
    decay_mult: 1
  }
  convolution_param {
    num_output: 256
    bias_term: false
    pad: 0
    kernel_size: 1
    stride: 1
  }
}
layer {
  name: "bn2a_branch1"
  type: "BatchNorm"
  bottom: "res2a_branch1"
  top: "res2a_branch1"
  param {
    name: "bn2a_branch1_0"
    lr_mult: 0
  }
  param {
    name: "bn2a_branch1_1"
    lr_mult: 0
  }
  param {
    name: "bn2a_branch1_2"
    lr_mult: 0
  }
  batch_norm_param {
    use_global_stats: true
  }
}
layer {
  name: "scale2a_branch1"
  type: "Scale"
  bottom: "res2a_branch1"
  top: "res2a_branch1"
  param {
    name: "scale2a_branch1_0"
    lr_mult: 0
  }
  param {
    name: "scale2a_branch1_1"
    lr_mult: 0
  }
  scale_param {
    bias_term: true
  }
}
layer {
  name: "res2a_branch2a"
  type: "Convolution"
  bottom: "pool1"
  top: "res2a_branch2a"
  param {
    name: "res2a_branch2a_0"
    lr_mult: 1
    decay_mult: 1
  }
  convolution_param {
    num_output: 64
    bias_term: false
    pad: 0
    kernel_size: 1
    stride: 1
  }
}
layer {
  name: "bn2a_branch2a"
  type: "BatchNorm"
  bottom: "res2a_branch2a"
  top: "res2a_branch2a"
  param {
    name: "bn2a_branch2a_0"
    lr_mult: 0
  }
  param {
    name: "bn2a_branch2a_1"
    lr_mult: 0
  }
  param {
    name: "bn2a_branch2a_2"
    lr_mult: 0
  }
  batch_norm_param {
    use_global_stats: true
  }
}
layer {
  name: "scale2a_branch2a"
  type: "Scale"
  bottom: "res2a_branch2a"
  top: "res2a_branch2a"
  param {
    name: "scale2a_branch2a_0"
    lr_mult: 0
  }
  param {
    name: "scale2a_branch2a_1"
    lr_mult: 0
  }
  scale_param {
    bias_term: true
  }
}
layer {
  name: "res2a_branch2a_relu"
  type: "ReLU"
  bottom: "res2a_branch2a"
  top: "res2a_branch2a"
}
layer {
  name: "res2a_branch2b"
  type: "Convolution"
  bottom: "res2a_branch2a"
  top: "res2a_branch2b"
  param {
    name: "res2a_branch2b_0"
    lr_mult: 1
    decay_mult: 1
  }
  convolution_param {
    num_output: 64
    bias_term: false
    pad: 1
    kernel_size: 3
    stride: 1
  }
}
layer {
  name: "bn2a_branch2b"
  type: "BatchNorm"
  bottom: "res2a_branch2b"
  top: "res2a_branch2b"
  param {
    name: "bn2a_branch2b_0"
    lr_mult: 0
  }
  param {
    name: "bn2a_branch2b_1"
    lr_mult: 0
  }
  param {
    name: "bn2a_branch2b_2"
    lr_mult: 0
  }
  batch_norm_param {
    use_global_stats: true
  }
}
layer {
  name: "scale2a_branch2b"
  type: "Scale"
  bottom: "res2a_branch2b"
  top: "res2a_branch2b"
  param {
    name: "scale2a_branch2b_0"
    lr_mult: 0
  }
  param {
    name: "scale2a_branch2b_1"
    lr_mult: 0
  }
  scale_param {
    bias_term: true
  }
}
layer {
  name: "res2a_branch2b_relu"
  type: "ReLU"
  bottom: "res2a_branch2b"
  top: "res2a_branch2b"
}
layer {
  name: "res2a_branch2c"
  type: "Convolution"
  bottom: "res2a_branch2b"
  top: "res2a_branch2c"
  param {
    name: "res2a_branch2c_0"
    lr_mult: 1
    decay_mult: 1
  }
  convolution_param {
    num_output: 256
    bias_term: false
    pad: 0
    kernel_size: 1
    stride: 1
  }
}
layer {
  name: "bn2a_branch2c"
  type: "BatchNorm"
  bottom: "res2a_branch2c"
  top: "res2a_branch2c"
  param {
    name: "bn2a_branch2c_0"
    lr_mult: 0
  }
  param {
    name: "bn2a_branch2c_1"
    lr_mult: 0
  }
  param {
    name: "bn2a_branch2c_2"
    lr_mult: 0
  }
  batch_norm_param {
    use_global_stats: true
  }
}
layer {
  name: "scale2a_branch2c"
  type: "Scale"
  bottom: "res2a_branch2c"
  top: "res2a_branch2c"
  param {
    name: "scale2a_branch2c_0"
    lr_mult: 0
  }
  param {
    name: "scale2a_branch2c_1"
    lr_mult: 0
  }
  scale_param {
    bias_term: true
  }
}
layer {
  name: "res2a"
  type: "Eltwise"
  bottom: "res2a_branch1"
  bottom: "res2a_branch2c"
  top: "res2a"
}
layer {
  name: "res2a_relu"
  type: "ReLU"
  bottom: "res2a"
  top: "res2a"
}
layer {
  name: "res2b_branch2a"
  type: "Convolution"
  bottom: "res2a"
  top: "res2b_branch2a"
  param {
    name: "res2b_branch2a_0"
    lr_mult: 1
    decay_mult: 1
  }
  convolution_param {
    num_output: 64
    bias_term: false
    pad: 0
    kernel_size: 1
    stride: 1
  }
}
layer {
  name: "bn2b_branch2a"
  type: "BatchNorm"
  bottom: "res2b_branch2a"
  top: "res2b_branch2a"
  param {
    name: "bn2b_branch2a_0"
    lr_mult: 0
  }
  param {
    name: "bn2b_branch2a_1"
    lr_mult: 0
  }
  param {
    name: "bn2b_branch2a_2"
    lr_mult: 0
  }
  batch_norm_param {
    use_global_stats: true
  }
}
layer {
  name: "scale2b_branch2a"
  type: "Scale"
  bottom: "res2b_branch2a"
  top: "res2b_branch2a"
  param {
    name: "scale2b_branch2a_0"
    lr_mult: 0
  }
  param {
    name: "scale2b_branch2a_1"
    lr_mult: 0
  }
  scale_param {
    bias_term: true
  }
}
layer {
  name: "res2b_branch2a_relu"
  type: "ReLU"
  bottom: "res2b_branch2a"
  top: "res2b_branch2a"
}
layer {
  name: "res2b_branch2b"
  type: "Convolution"
  bottom: "res2b_branch2a"
  top: "res2b_branch2b"
  param {
    name: "res2b_branch2b_0"
    lr_mult: 1
    decay_mult: 1
  }
  convolution_param {
    num_output: 64
    bias_term: false
    pad: 1
    kernel_size: 3
    stride: 1
  }
}
layer {
  name: "bn2b_branch2b"
  type: "BatchNorm"
  bottom: "res2b_branch2b"
  top: "res2b_branch2b"
  param {
    name: "bn2b_branch2b_0"
    lr_mult: 0
  }
  param {
    name: "bn2b_branch2b_1"
    lr_mult: 0
  }
  param {
    name: "bn2b_branch2b_2"
    lr_mult: 0
  }
  batch_norm_param {
    use_global_stats: true
  }
}
layer {
  name: "scale2b_branch2b"
  type: "Scale"
  bottom: "res2b_branch2b"
  top: "res2b_branch2b"
  param {
    name: "scale2b_branch2b_0"
    lr_mult: 0
  }
  param {
    name: "scale2b_branch2b_1"
    lr_mult: 0
  }
  scale_param {
    bias_term: true
  }
}
layer {
  name: "res2b_branch2b_relu"
  type: "ReLU"
  bottom: "res2b_branch2b"
  top: "res2b_branch2b"
}
layer {
  name: "res2b_branch2c"
  type: "Convolution"
  bottom: "res2b_branch2b"
  top: "res2b_branch2c"
  param {
    name: "res2b_branch2c_0"
    lr_mult: 1
    decay_mult: 1
  }
  convolution_param {
    num_output: 256
    bias_term: false
    pad: 0
    kernel_size: 1
    stride: 1
  }
}
layer {
  name: "bn2b_branch2c"
  type: "BatchNorm"
  bottom: "res2b_branch2c"
  top: "res2b_branch2c"
  param {
    name: "bn2b_branch2c_0"
    lr_mult: 0
  }
  param {
    name: "bn2b_branch2c_1"
    lr_mult: 0
  }
  param {
    name: "bn2b_branch2c_2"
    lr_mult: 0
  }
  batch_norm_param {
    use_global_stats: true
  }
}
layer {
  name: "scale2b_branch2c"
  type: "Scale"
  bottom: "res2b_branch2c"
  top: "res2b_branch2c"
  param {
    name: "scale2b_branch2c_0"
    lr_mult: 0
  }
  param {
    name: "scale2b_branch2c_1"
    lr_mult: 0
  }
  scale_param {
    bias_term: true
  }
}
layer {
  name: "res2b"
  type: "Eltwise"
  bottom: "res2a"
  bottom: "res2b_branch2c"
  top: "res2b"
}
layer {
  name: "res2b_relu"
  type: "ReLU"
  bottom: "res2b"
  top: "res2b"
}
layer {
  name: "res2c_branch2a"
  type: "Convolution"
  bottom: "res2b"
  top: "res2c_branch2a"
  param {
    name: "res2c_branch2a_0"
    lr_mult: 1
    decay_mult: 1
  }
  convolution_param {
    num_output: 64
    bias_term: false
    pad: 0
    kernel_size: 1
    stride: 1
  }
}
layer {
  name: "bn2c_branch2a"
  type: "BatchNorm"
  bottom: "res2c_branch2a"
  top: "res2c_branch2a"
  param {
    name: "bn2c_branch2a_0"
    lr_mult: 0
  }
  param {
    name: "bn2c_branch2a_1"
    lr_mult: 0
  }
  param {
    name: "bn2c_branch2a_2"
    lr_mult: 0
  }
  batch_norm_param {
    use_global_stats: true
  }
}
layer {
  name: "scale2c_branch2a"
  type: "Scale"
  bottom: "res2c_branch2a"
  top: "res2c_branch2a"
  param {
    name: "scale2c_branch2a_0"
    lr_mult: 0
  }
  param {
    name: "scale2c_branch2a_1"
    lr_mult: 0
  }
  scale_param {
    bias_term: true
  }
}
layer {
  name: "res2c_branch2a_relu"
  type: "ReLU"
  bottom: "res2c_branch2a"
  top: "res2c_branch2a"
}
layer {
  name: "res2c_branch2b"
  type: "Convolution"
  bottom: "res2c_branch2a"
  top: "res2c_branch2b"
  param {
    name: "res2c_branch2b_0"
    lr_mult: 1
    decay_mult: 1
  }
  convolution_param {
    num_output: 64
    bias_term: false
    pad: 1
    kernel_size: 3
    stride: 1
  }
}
layer {
  name: "bn2c_branch2b"
  type: "BatchNorm"
  bottom: "res2c_branch2b"
  top: "res2c_branch2b"
  param {
    name: "bn2c_branch2b_0"
    lr_mult: 0
  }
  param {
    name: "bn2c_branch2b_1"
    lr_mult: 0
  }
  param {
    name: "bn2c_branch2b_2"
    lr_mult: 0
  }
  batch_norm_param {
    use_global_stats: true
  }
}
layer {
  name: "scale2c_branch2b"
  type: "Scale"
  bottom: "res2c_branch2b"
  top: "res2c_branch2b"
  param {
    name: "scale2c_branch2b_0"
    lr_mult: 0
  }
  param {
    name: "scale2c_branch2b_1"
    lr_mult: 0
  }
  scale_param {
    bias_term: true
  }
}
layer {
  name: "res2c_branch2b_relu"
  type: "ReLU"
  bottom: "res2c_branch2b"
  top: "res2c_branch2b"
}
layer {
  name: "res2c_branch2c"
  type: "Convolution"
  bottom: "res2c_branch2b"
  top: "res2c_branch2c"
  param {
    name: "res2c_branch2c_0"
    lr_mult: 1
    decay_mult: 1
  }
  convolution_param {
    num_output: 256
    bias_term: false
    pad: 0
    kernel_size: 1
    stride: 1
  }
}
layer {
  name: "bn2c_branch2c"
  type: "BatchNorm"
  bottom: "res2c_branch2c"
  top: "res2c_branch2c"
  param {
    name: "bn2c_branch2c_0"
    lr_mult: 0
  }
  param {
    name: "bn2c_branch2c_1"
    lr_mult: 0
  }
  param {
    name: "bn2c_branch2c_2"
    lr_mult: 0
  }
  batch_norm_param {
    use_global_stats: true
  }
}
layer {
  name: "scale2c_branch2c"
  type: "Scale"
  bottom: "res2c_branch2c"
  top: "res2c_branch2c"
  param {
    name: "scale2c_branch2c_0"
    lr_mult: 0
  }
  param {
    name: "scale2c_branch2c_1"
    lr_mult: 0
  }
  scale_param {
    bias_term: true
  }
}
layer {
  name: "res2c"
  type: "Eltwise"
  bottom: "res2b"
  bottom: "res2c_branch2c"
  top: "res2c"
}
layer {
  name: "res2c_relu"
  type: "ReLU"
  bottom: "res2c"
  top: "res2c"
}
layer {
  name: "res3a_branch1"
  type: "Convolution"
  bottom: "res2c"
  top: "res3a_branch1"
  param {
    name: "res3a_branch1_0"
    lr_mult: 1
    decay_mult: 1
  }
  convolution_param {
    num_output: 512
    bias_term: false
    pad: 0
    kernel_size: 1
    stride: 2
  }
}
layer {
  name: "bn3a_branch1"
  type: "BatchNorm"
  bottom: "res3a_branch1"
  top: "res3a_branch1"
  param {
    name: "bn3a_branch1_0"
    lr_mult: 0
  }
  param {
    name: "bn3a_branch1_1"
    lr_mult: 0
  }
  param {
    name: "bn3a_branch1_2"
    lr_mult: 0
  }
  batch_norm_param {
    use_global_stats: true
  }
}
layer {
  name: "scale3a_branch1"
  type: "Scale"
  bottom: "res3a_branch1"
  top: "res3a_branch1"
  param {
    name: "scale3a_branch1_0"
    lr_mult: 0
  }
  param {
    name: "scale3a_branch1_1"
    lr_mult: 0
  }
  scale_param {
    bias_term: true
  }
}
layer {
  name: "res3a_branch2a"
  type: "Convolution"
  bottom: "res2c"
  top: "res3a_branch2a"
  param {
    name: "res3a_branch2a_0"
    lr_mult: 1
    decay_mult: 1
  }
  convolution_param {
    num_output: 128
    bias_term: false
    pad: 0
    kernel_size: 1
    stride: 2
  }
}
layer {
  name: "bn3a_branch2a"
  type: "BatchNorm"
  bottom: "res3a_branch2a"
  top: "res3a_branch2a"
  param {
    name: "bn3a_branch2a_0"
    lr_mult: 0
  }
  param {
    name: "bn3a_branch2a_1"
    lr_mult: 0
  }
  param {
    name: "bn3a_branch2a_2"
    lr_mult: 0
  }
  batch_norm_param {
    use_global_stats: true
  }
}
layer {
  name: "scale3a_branch2a"
  type: "Scale"
  bottom: "res3a_branch2a"
  top: "res3a_branch2a"
  param {
    name: "scale3a_branch2a_0"
    lr_mult: 0
  }
  param {
    name: "scale3a_branch2a_1"
    lr_mult: 0
  }
  scale_param {
    bias_term: true
  }
}
layer {
  name: "res3a_branch2a_relu"
  type: "ReLU"
  bottom: "res3a_branch2a"
  top: "res3a_branch2a"
}
layer {
  name: "res3a_branch2b"
  type: "Convolution"
  bottom: "res3a_branch2a"
  top: "res3a_branch2b"
  param {
    name: "res3a_branch2b_0"
    lr_mult: 1
    decay_mult: 1
  }
  convolution_param {
    num_output: 128
    bias_term: false
    pad: 1
    kernel_size: 3
    stride: 1
  }
}
layer {
  name: "bn3a_branch2b"
  type: "BatchNorm"
  bottom: "res3a_branch2b"
  top: "res3a_branch2b"
  param {
    name: "bn3a_branch2b_0"
    lr_mult: 0
  }
  param {
    name: "bn3a_branch2b_1"
    lr_mult: 0
  }
  param {
    name: "bn3a_branch2b_2"
    lr_mult: 0
  }
  batch_norm_param {
    use_global_stats: true
  }
}
layer {
  name: "scale3a_branch2b"
  type: "Scale"
  bottom: "res3a_branch2b"
  top: "res3a_branch2b"
  param {
    name: "scale3a_branch2b_0"
    lr_mult: 0
  }
  param {
    name: "scale3a_branch2b_1"
    lr_mult: 0
  }
  scale_param {
    bias_term: true
  }
}
layer {
  name: "res3a_branch2b_relu"
  type: "ReLU"
  bottom: "res3a_branch2b"
  top: "res3a_branch2b"
}
layer {
  name: "res3a_branch2c"
  type: "Convolution"
  bottom: "res3a_branch2b"
  top: "res3a_branch2c"
  param {
    name: "res3a_branch2c_0"
    lr_mult: 1
    decay_mult: 1
  }
  convolution_param {
    num_output: 512
    bias_term: false
    pad: 0
    kernel_size: 1
    stride: 1
  }
}
layer {
  name: "bn3a_branch2c"
  type: "BatchNorm"
  bottom: "res3a_branch2c"
  top: "res3a_branch2c"
  param {
    name: "bn3a_branch2c_0"
    lr_mult: 0
  }
  param {
    name: "bn3a_branch2c_1"
    lr_mult: 0
  }
  param {
    name: "bn3a_branch2c_2"
    lr_mult: 0
  }
  batch_norm_param {
    use_global_stats: true
  }
}
layer {
  name: "scale3a_branch2c"
  type: "Scale"
  bottom: "res3a_branch2c"
  top: "res3a_branch2c"
  param {
    name: "scale3a_branch2c_0"
    lr_mult: 0
  }
  param {
    name: "scale3a_branch2c_1"
    lr_mult: 0
  }
  scale_param {
    bias_term: true
  }
}
layer {
  name: "res3a"
  type: "Eltwise"
  bottom: "res3a_branch1"
  bottom: "res3a_branch2c"
  top: "res3a"
}
layer {
  name: "res3a_relu"
  type: "ReLU"
  bottom: "res3a"
  top: "res3a"
}
layer {
  name: "res3b1_branch2a"
  type: "Convolution"
  bottom: "res3a"
  top: "res3b1_branch2a"
  param {
    name: "res3b1_branch2a_0"
    lr_mult: 1
    decay_mult: 1
  }
  convolution_param {
    num_output: 128
    bias_term: false
    pad: 0
    kernel_size: 1
    stride: 1
  }
}
layer {
  name: "bn3b1_branch2a"
  type: "BatchNorm"
  bottom: "res3b1_branch2a"
  top: "res3b1_branch2a"
  param {
    name: "bn3b1_branch2a_0"
    lr_mult: 0
  }
  param {
    name: "bn3b1_branch2a_1"
    lr_mult: 0
  }
  param {
    name: "bn3b1_branch2a_2"
    lr_mult: 0
  }
  batch_norm_param {
    use_global_stats: true
  }
}
layer {
  name: "scale3b1_branch2a"
  type: "Scale"
  bottom: "res3b1_branch2a"
  top: "res3b1_branch2a"
  param {
    name: "scale3b1_branch2a_0"
    lr_mult: 0
  }
  param {
    name: "scale3b1_branch2a_1"
    lr_mult: 0
  }
  scale_param {
    bias_term: true
  }
}
layer {
  name: "res3b1_branch2a_relu"
  type: "ReLU"
  bottom: "res3b1_branch2a"
  top: "res3b1_branch2a"
}
layer {
  name: "res3b1_branch2b"
  type: "Convolution"
  bottom: "res3b1_branch2a"
  top: "res3b1_branch2b"
  param {
    name: "res3b1_branch2b_0"
    lr_mult: 1
    decay_mult: 1
  }
  convolution_param {
    num_output: 128
    bias_term: false
    pad: 1
    kernel_size: 3
    stride: 1
  }
}
layer {
  name: "bn3b1_branch2b"
  type: "BatchNorm"
  bottom: "res3b1_branch2b"
  top: "res3b1_branch2b"
  param {
    name: "bn3b1_branch2b_0"
    lr_mult: 0
  }
  param {
    name: "bn3b1_branch2b_1"
    lr_mult: 0
  }
  param {
    name: "bn3b1_branch2b_2"
    lr_mult: 0
  }
  batch_norm_param {
    use_global_stats: true
  }
}
layer {
  name: "scale3b1_branch2b"
  type: "Scale"
  bottom: "res3b1_branch2b"
  top: "res3b1_branch2b"
  param {
    name: "scale3b1_branch2b_0"
    lr_mult: 0
  }
  param {
    name: "scale3b1_branch2b_1"
    lr_mult: 0
  }
  scale_param {
    bias_term: true
  }
}
layer {
  name: "res3b1_branch2b_relu"
  type: "ReLU"
  bottom: "res3b1_branch2b"
  top: "res3b1_branch2b"
}
layer {
  name: "res3b1_branch2c"
  type: "Convolution"
  bottom: "res3b1_branch2b"
  top: "res3b1_branch2c"
  param {
    name: "res3b1_branch2c_0"
    lr_mult: 1
    decay_mult: 1
  }
  convolution_param {
    num_output: 512
    bias_term: false
    pad: 0
    kernel_size: 1
    stride: 1
  }
}
layer {
  name: "bn3b1_branch2c"
  type: "BatchNorm"
  bottom: "res3b1_branch2c"
  top: "res3b1_branch2c"
  param {
    name: "bn3b1_branch2c_0"
    lr_mult: 0
  }
  param {
    name: "bn3b1_branch2c_1"
    lr_mult: 0
  }
  param {
    name: "bn3b1_branch2c_2"
    lr_mult: 0
  }
  batch_norm_param {
    use_global_stats: true
  }
}
layer {
  name: "scale3b1_branch2c"
  type: "Scale"
  bottom: "res3b1_branch2c"
  top: "res3b1_branch2c"
  param {
    name: "scale3b1_branch2c_0"
    lr_mult: 0
  }
  param {
    name: "scale3b1_branch2c_1"
    lr_mult: 0
  }
  scale_param {
    bias_term: true
  }
}
layer {
  name: "res3b1"
  type: "Eltwise"
  bottom: "res3a"
  bottom: "res3b1_branch2c"
  top: "res3b1"
}
layer {
  name: "res3b1_relu"
  type: "ReLU"
  bottom: "res3b1"
  top: "res3b1"
}
layer {
  name: "res3b2_branch2a"
  type: "Convolution"
  bottom: "res3b1"
  top: "res3b2_branch2a"
  param {
    name: "res3b2_branch2a_0"
    lr_mult: 1
    decay_mult: 1
  }
  convolution_param {
    num_output: 128
    bias_term: false
    pad: 0
    kernel_size: 1
    stride: 1
  }
}
layer {
  name: "bn3b2_branch2a"
  type: "BatchNorm"
  bottom: "res3b2_branch2a"
  top: "res3b2_branch2a"
  param {
    name: "bn3b2_branch2a_0"
    lr_mult: 0
  }
  param {
    name: "bn3b2_branch2a_1"
    lr_mult: 0
  }
  param {
    name: "bn3b2_branch2a_2"
    lr_mult: 0
  }
  batch_norm_param {
    use_global_stats: true
  }
}
layer {
  name: "scale3b2_branch2a"
  type: "Scale"
  bottom: "res3b2_branch2a"
  top: "res3b2_branch2a"
  param {
    name: "scale3b2_branch2a_0"
    lr_mult: 0
  }
  param {
    name: "scale3b2_branch2a_1"
    lr_mult: 0
  }
  scale_param {
    bias_term: true
  }
}
layer {
  name: "res3b2_branch2a_relu"
  type: "ReLU"
  bottom: "res3b2_branch2a"
  top: "res3b2_branch2a"
}
layer {
  name: "res3b2_branch2b"
  type: "Convolution"
  bottom: "res3b2_branch2a"
  top: "res3b2_branch2b"
  param {
    name: "res3b2_branch2b_0"
    lr_mult: 1
    decay_mult: 1
  }
  convolution_param {
    num_output: 128
    bias_term: false
    pad: 1
    kernel_size: 3
    stride: 1
  }
}
layer {
  name: "bn3b2_branch2b"
  type: "BatchNorm"
  bottom: "res3b2_branch2b"
  top: "res3b2_branch2b"
  param {
    name: "bn3b2_branch2b_0"
    lr_mult: 0
  }
  param {
    name: "bn3b2_branch2b_1"
    lr_mult: 0
  }
  param {
    name: "bn3b2_branch2b_2"
    lr_mult: 0
  }
  batch_norm_param {
    use_global_stats: true
  }
}
layer {
  name: "scale3b2_branch2b"
  type: "Scale"
  bottom: "res3b2_branch2b"
  top: "res3b2_branch2b"
  param {
    name: "scale3b2_branch2b_0"
    lr_mult: 0
  }
  param {
    name: "scale3b2_branch2b_1"
    lr_mult: 0
  }
  scale_param {
    bias_term: true
  }
}
layer {
  name: "res3b2_branch2b_relu"
  type: "ReLU"
  bottom: "res3b2_branch2b"
  top: "res3b2_branch2b"
}
layer {
  name: "res3b2_branch2c"
  type: "Convolution"
  bottom: "res3b2_branch2b"
  top: "res3b2_branch2c"
  param {
    name: "res3b2_branch2c_0"
    lr_mult: 1
    decay_mult: 1
  }
  convolution_param {
    num_output: 512
    bias_term: false
    pad: 0
    kernel_size: 1
    stride: 1
  }
}
layer {
  name: "bn3b2_branch2c"
  type: "BatchNorm"
  bottom: "res3b2_branch2c"
  top: "res3b2_branch2c"
  param {
    name: "bn3b2_branch2c_0"
    lr_mult: 0
  }
  param {
    name: "bn3b2_branch2c_1"
    lr_mult: 0
  }
  param {
    name: "bn3b2_branch2c_2"
    lr_mult: 0
  }
  batch_norm_param {
    use_global_stats: true
  }
}
layer {
  name: "scale3b2_branch2c"
  type: "Scale"
  bottom: "res3b2_branch2c"
  top: "res3b2_branch2c"
  param {
    name: "scale3b2_branch2c_0"
    lr_mult: 0
  }
  param {
    name: "scale3b2_branch2c_1"
    lr_mult: 0
  }
  scale_param {
    bias_term: true
  }
}
layer {
  name: "res3b2"
  type: "Eltwise"
  bottom: "res3b1"
  bottom: "res3b2_branch2c"
  top: "res3b2"
}
layer {
  name: "res3b2_relu"
  type: "ReLU"
  bottom: "res3b2"
  top: "res3b2"
}
layer {
  name: "res3b3_branch2a"
  type: "Convolution"
  bottom: "res3b2"
  top: "res3b3_branch2a"
  param {
    name: "res3b3_branch2a_0"
    lr_mult: 1
    decay_mult: 1
  }
  convolution_param {
    num_output: 128
    bias_term: false
    pad: 0
    kernel_size: 1
    stride: 1
  }
}
layer {
  name: "bn3b3_branch2a"
  type: "BatchNorm"
  bottom: "res3b3_branch2a"
  top: "res3b3_branch2a"
  param {
    name: "bn3b3_branch2a_0"
    lr_mult: 0
  }
  param {
    name: "bn3b3_branch2a_1"
    lr_mult: 0
  }
  param {
    name: "bn3b3_branch2a_2"
    lr_mult: 0
  }
  batch_norm_param {
    use_global_stats: true
  }
}
layer {
  name: "scale3b3_branch2a"
  type: "Scale"
  bottom: "res3b3_branch2a"
  top: "res3b3_branch2a"
  param {
    name: "scale3b3_branch2a_0"
    lr_mult: 0
  }
  param {
    name: "scale3b3_branch2a_1"
    lr_mult: 0
  }
  scale_param {
    bias_term: true
  }
}
layer {
  name: "res3b3_branch2a_relu"
  type: "ReLU"
  bottom: "res3b3_branch2a"
  top: "res3b3_branch2a"
}
layer {
  name: "res3b3_branch2b"
  type: "Convolution"
  bottom: "res3b3_branch2a"
  top: "res3b3_branch2b"
  param {
    name: "res3b3_branch2b_0"
    lr_mult: 1
    decay_mult: 1
  }
  convolution_param {
    num_output: 128
    bias_term: false
    pad: 1
    kernel_size: 3
    stride: 1
  }
}
layer {
  name: "bn3b3_branch2b"
  type: "BatchNorm"
  bottom: "res3b3_branch2b"
  top: "res3b3_branch2b"
  param {
    name: "bn3b3_branch2b_0"
    lr_mult: 0
  }
  param {
    name: "bn3b3_branch2b_1"
    lr_mult: 0
  }
  param {
    name: "bn3b3_branch2b_2"
    lr_mult: 0
  }
  batch_norm_param {
    use_global_stats: true
  }
}
layer {
  name: "scale3b3_branch2b"
  type: "Scale"
  bottom: "res3b3_branch2b"
  top: "res3b3_branch2b"
  param {
    name: "scale3b3_branch2b_0"
    lr_mult: 0
  }
  param {
    name: "scale3b3_branch2b_1"
    lr_mult: 0
  }
  scale_param {
    bias_term: true
  }
}
layer {
  name: "res3b3_branch2b_relu"
  type: "ReLU"
  bottom: "res3b3_branch2b"
  top: "res3b3_branch2b"
}
layer {
  name: "res3b3_branch2c"
  type: "Convolution"
  bottom: "res3b3_branch2b"
  top: "res3b3_branch2c"
  param {
    name: "res3b3_branch2c_0"
    lr_mult: 1
    decay_mult: 1
  }
  convolution_param {
    num_output: 512
    bias_term: false
    pad: 0
    kernel_size: 1
    stride: 1
  }
}
layer {
  name: "bn3b3_branch2c"
  type: "BatchNorm"
  bottom: "res3b3_branch2c"
  top: "res3b3_branch2c"
  param {
    name: "bn3b3_branch2c_0"
    lr_mult: 0
  }
  param {
    name: "bn3b3_branch2c_1"
    lr_mult: 0
  }
  param {
    name: "bn3b3_branch2c_2"
    lr_mult: 0
  }
  batch_norm_param {
    use_global_stats: true
  }
}
layer {
  name: "scale3b3_branch2c"
  type: "Scale"
  bottom: "res3b3_branch2c"
  top: "res3b3_branch2c"
  param {
    name: "scale3b3_branch2c_0"
    lr_mult: 0
  }
  param {
    name: "scale3b3_branch2c_1"
    lr_mult: 0
  }
  scale_param {
    bias_term: true
  }
}
layer {
  name: "res3b3"
  type: "Eltwise"
  bottom: "res3b2"
  bottom: "res3b3_branch2c"
  top: "res3b3"
}
layer {
  name: "res3b3_relu"
  type: "ReLU"
  bottom: "res3b3"
  top: "res3b3"
}
layer {
  name: "res4a_branch1"
  type: "Convolution"
  bottom: "res3b3"
  top: "res4a_branch1"
  param {
    name: "res4a_branch1_0"
    lr_mult: 1
    decay_mult: 1
  }
  convolution_param {
    num_output: 1024
    bias_term: false
    pad: 0
    kernel_size: 1
    stride: 1
  }
}
layer {
  name: "bn4a_branch1"
  type: "BatchNorm"
  bottom: "res4a_branch1"
  top: "res4a_branch1"
  param {
    name: "bn4a_branch1_0"
    lr_mult: 0
  }
  param {
    name: "bn4a_branch1_1"
    lr_mult: 0
  }
  param {
    name: "bn4a_branch1_2"
    lr_mult: 0
  }
  batch_norm_param {
    use_global_stats: true
  }
}
layer {
  name: "scale4a_branch1"
  type: "Scale"
  bottom: "res4a_branch1"
  top: "res4a_branch1"
  param {
    name: "scale4a_branch1_0"
    lr_mult: 0
  }
  param {
    name: "scale4a_branch1_1"
    lr_mult: 0
  }
  scale_param {
    bias_term: true
  }
}
layer {
  name: "res4a_branch2a"
  type: "Convolution"
  bottom: "res3b3"
  top: "res4a_branch2a"
  param {
    name: "res4a_branch2a_0"
    lr_mult: 1
    decay_mult: 1
  }
  convolution_param {
    num_output: 256
    bias_term: false
    pad: 0
    kernel_size: 1
    stride: 1
  }
}
layer {
  name: "bn4a_branch2a"
  type: "BatchNorm"
  bottom: "res4a_branch2a"
  top: "res4a_branch2a"
  param {
    name: "bn4a_branch2a_0"
    lr_mult: 0
  }
  param {
    name: "bn4a_branch2a_1"
    lr_mult: 0
  }
  param {
    name: "bn4a_branch2a_2"
    lr_mult: 0
  }
  batch_norm_param {
    use_global_stats: true
  }
}
layer {
  name: "scale4a_branch2a"
  type: "Scale"
  bottom: "res4a_branch2a"
  top: "res4a_branch2a"
  param {
    name: "scale4a_branch2a_0"
    lr_mult: 0
  }
  param {
    name: "scale4a_branch2a_1"
    lr_mult: 0
  }
  scale_param {
    bias_term: true
  }
}
layer {
  name: "res4a_branch2a_relu"
  type: "ReLU"
  bottom: "res4a_branch2a"
  top: "res4a_branch2a"
}
layer {
  name: "res4a_branch2b"
  type: "Convolution"
  bottom: "res4a_branch2a"
  top: "res4a_branch2b"
  param {
    name: "res4a_branch2b_0"
    lr_mult: 1
    decay_mult: 1
  }
  convolution_param {
    num_output: 256
    bias_term: false
    pad: 2
    kernel_size: 3
    stride: 1
    dilation: 2
  }
}
layer {
  name: "bn4a_branch2b"
  type: "BatchNorm"
  bottom: "res4a_branch2b"
  top: "res4a_branch2b"
  param {
    name: "bn4a_branch2b_0"
    lr_mult: 0
  }
  param {
    name: "bn4a_branch2b_1"
    lr_mult: 0
  }
  param {
    name: "bn4a_branch2b_2"
    lr_mult: 0
  }
  batch_norm_param {
    use_global_stats: true
  }
}
layer {
  name: "scale4a_branch2b"
  type: "Scale"
  bottom: "res4a_branch2b"
  top: "res4a_branch2b"
  param {
    name: "scale4a_branch2b_0"
    lr_mult: 0
  }
  param {
    name: "scale4a_branch2b_1"
    lr_mult: 0
  }
  scale_param {
    bias_term: true
  }
}
layer {
  name: "res4a_branch2b_relu"
  type: "ReLU"
  bottom: "res4a_branch2b"
  top: "res4a_branch2b"
}
layer {
  name: "res4a_branch2c"
  type: "Convolution"
  bottom: "res4a_branch2b"
  top: "res4a_branch2c"
  param {
    name: "res4a_branch2c_0"
    lr_mult: 1
    decay_mult: 1
  }
  convolution_param {
    num_output: 1024
    bias_term: false
    pad: 0
    kernel_size: 1
    stride: 1
  }
}
layer {
  name: "bn4a_branch2c"
  type: "BatchNorm"
  bottom: "res4a_branch2c"
  top: "res4a_branch2c"
  param {
    name: "bn4a_branch2c_0"
    lr_mult: 0
  }
  param {
    name: "bn4a_branch2c_1"
    lr_mult: 0
  }
  param {
    name: "bn4a_branch2c_2"
    lr_mult: 0
  }
  batch_norm_param {
    use_global_stats: true
  }
}
layer {
  name: "scale4a_branch2c"
  type: "Scale"
  bottom: "res4a_branch2c"
  top: "res4a_branch2c"
  param {
    name: "scale4a_branch2c_0"
    lr_mult: 0
  }
  param {
    name: "scale4a_branch2c_1"
    lr_mult: 0
  }
  scale_param {
    bias_term: true
  }
}
layer {
  name: "res4a"
  type: "Eltwise"
  bottom: "res4a_branch1"
  bottom: "res4a_branch2c"
  top: "res4a"
}
layer {
  name: "res4a_relu"
  type: "ReLU"
  bottom: "res4a"
  top: "res4a"
}
layer {
  name: "res4b1_branch2a"
  type: "Convolution"
  bottom: "res4a"
  top: "res4b1_branch2a"
  param {
    name: "res4b1_branch2a_0"
    lr_mult: 1
    decay_mult: 1
  }
  convolution_param {
    num_output: 256
    bias_term: false
    pad: 0
    kernel_size: 1
    stride: 1
  }
}
layer {
  name: "bn4b1_branch2a"
  type: "BatchNorm"
  bottom: "res4b1_branch2a"
  top: "res4b1_branch2a"
  param {
    name: "bn4b1_branch2a_0"
    lr_mult: 0
  }
  param {
    name: "bn4b1_branch2a_1"
    lr_mult: 0
  }
  param {
    name: "bn4b1_branch2a_2"
    lr_mult: 0
  }
  batch_norm_param {
    use_global_stats: true
  }
}
layer {
  name: "scale4b1_branch2a"
  type: "Scale"
  bottom: "res4b1_branch2a"
  top: "res4b1_branch2a"
  param {
    name: "scale4b1_branch2a_0"
    lr_mult: 0
  }
  param {
    name: "scale4b1_branch2a_1"
    lr_mult: 0
  }
  scale_param {
    bias_term: true
  }
}
layer {
  name: "res4b1_branch2a_relu"
I0928 17:57:30.067900 19368 layer_factory.hpp:77] Creating layer data
I0928 17:57:30.067939 19368 net.cpp:106] Creating Layer data
I0928 17:57:30.067948 19368 net.cpp:411] data -> data
I0928 17:57:30.067970 19368 net.cpp:411] data -> label
I0928 17:57:30.067981 19368 net.cpp:411] data -> data_dim
I0928 17:57:30.067996 19368 image_seg_data_layer.cpp:46] Opening file NYUdepth/list/val.txt
I0928 17:57:30.069164 19368 image_seg_data_layer.cpp:68] A total of 1308 images.
I0928 17:57:30.494374 19368 image_seg_data_layer.cpp:137] output data size: 1,3,481,513
I0928 17:57:30.494390 19368 image_seg_data_layer.cpp:141] output label size: 1,1,481,513
I0928 17:57:30.494392 19368 image_seg_data_layer.cpp:145] output data_dim size: 1,1,1,2
I0928 17:57:30.503623 19368 net.cpp:150] Setting up data
I0928 17:57:30.503670 19368 net.cpp:157] Top shape: 1 3 481 513 (740259)
I0928 17:57:30.503674 19368 net.cpp:157] Top shape: 1 1 481 513 (246753)
I0928 17:57:30.503692 19368 net.cpp:157] Top shape: 1 1 1 2 (2)
I0928 17:57:30.503695 19368 net.cpp:165] Memory required for data: 3948056
I0928 17:57:30.503703 19368 layer_factory.hpp:77] Creating layer data_data_0_split
I0928 17:57:30.503729 19368 net.cpp:106] Creating Layer data_data_0_split
I0928 17:57:30.503749 19368 net.cpp:454] data_data_0_split <- data
I0928 17:57:30.503775 19368 net.cpp:411] data_data_0_split -> data_data_0_split_0
I0928 17:57:30.503787 19368 net.cpp:411] data_data_0_split -> data_data_0_split_1
I0928 17:57:30.503795 19368 net.cpp:411] data_data_0_split -> data_data_0_split_2
I0928 17:57:30.503800 19368 net.cpp:411] data_data_0_split -> data_data_0_split_3
I0928 17:57:30.503862 19368 net.cpp:150] Setting up data_data_0_split
I0928 17:57:30.503868 19368 net.cpp:157] Top shape: 1 3 481 513 (740259)
I0928 17:57:30.503871 19368 net.cpp:157] Top shape: 1 3 481 513 (740259)
I0928 17:57:30.503875 19368 net.cpp:157] Top shape: 1 3 481 513 (740259)
I0928 17:57:30.503877 19368 net.cpp:157] Top shape: 1 3 481 513 (740259)
I0928 17:57:30.503880 19368 net.cpp:165] Memory required for data: 15792200
I0928 17:57:30.503897 19368 layer_factory.hpp:77] Creating layer label_data_1_split
I0928 17:57:30.503903 19368 net.cpp:106] Creating Layer label_data_1_split
I0928 17:57:30.503908 19368 net.cpp:454] label_data_1_split <- label
I0928 17:57:30.503928 19368 net.cpp:411] label_data_1_split -> label_data_1_split_0
I0928 17:57:30.503949 19368 net.cpp:411] label_data_1_split -> label_data_1_split_1
I0928 17:57:30.503974 19368 net.cpp:411] label_data_1_split -> label_data_1_split_2
I0928 17:57:30.504051 19368 net.cpp:150] Setting up label_data_1_split
I0928 17:57:30.504056 19368 net.cpp:157] Top shape: 1 1 481 513 (246753)
I0928 17:57:30.504060 19368 net.cpp:157] Top shape: 1 1 481 513 (246753)
I0928 17:57:30.504077 19368 net.cpp:157] Top shape: 1 1 481 513 (246753)
I0928 17:57:30.504081 19368 net.cpp:165] Memory required for data: 18753236
I0928 17:57:30.504082 19368 layer_factory.hpp:77] Creating layer data_dim_data_2_split
I0928 17:57:30.504086 19368 net.cpp:106] Creating Layer data_dim_data_2_split
I0928 17:57:30.504106 19368 net.cpp:454] data_dim_data_2_split <- data_dim
I0928 17:57:30.504112 19368 net.cpp:411] data_dim_data_2_split -> data_dim_data_2_split_0
I0928 17:57:30.504122 19368 net.cpp:411] data_dim_data_2_split -> data_dim_data_2_split_1
I0928 17:57:30.504161 19368 net.cpp:150] Setting up data_dim_data_2_split
I0928 17:57:30.504166 19368 net.cpp:157] Top shape: 1 1 1 2 (2)
I0928 17:57:30.504173 19368 net.cpp:157] Top shape: 1 1 1 2 (2)
I0928 17:57:30.504178 19368 net.cpp:165] Memory required for data: 18753252
I0928 17:57:30.504181 19368 layer_factory.hpp:77] Creating layer data_res05
I0928 17:57:30.504190 19368 net.cpp:106] Creating Layer data_res05
I0928 17:57:30.504196 19368 net.cpp:454] data_res05 <- data_data_0_split_0
I0928 17:57:30.504202 19368 net.cpp:411] data_res05 -> data_res05
I0928 17:57:30.504243 19368 net.cpp:150] Setting up data_res05
I0928 17:57:30.504250 19368 net.cpp:157] Top shape: 1 3 241 257 (185811)
I0928 17:57:30.504254 19368 net.cpp:165] Memory required for data: 19496496
I0928 17:57:30.504258 19368 layer_factory.hpp:77] Creating layer data_res075
I0928 17:57:30.504266 19368 net.cpp:106] Creating Layer data_res075
I0928 17:57:30.504269 19368 net.cpp:454] data_res075 <- data_data_0_split_1
I0928 17:57:30.504277 19368 net.cpp:411] data_res075 -> data_res075
I0928 17:57:30.504539 19368 net.cpp:150] Setting up data_res075
I0928 17:57:30.504544 19368 net.cpp:157] Top shape: 1 3 361 385 (416955)
I0928 17:57:30.504561 19368 net.cpp:165] Memory required for data: 21164316
I0928 17:57:30.504567 19368 layer_factory.hpp:77] Creating layer conv1
I0928 17:57:30.504580 19368 net.cpp:106] Creating Layer conv1
I0928 17:57:30.504596 19368 net.cpp:454] conv1 <- data_data_0_split_2
I0928 17:57:30.504604 19368 net.cpp:411] conv1 -> conv1
I0928 17:57:30.505677 19368 net.cpp:150] Setting up conv1
I0928 17:57:30.505688 19368 net.cpp:157] Top shape: 1 64 241 257 (3963968)
I0928 17:57:30.505693 19368 net.cpp:165] Memory required for data: 37020188
I0928 17:57:30.505703 19368 layer_factory.hpp:77] Creating layer bn_conv1
I0928 17:57:30.505713 19368 net.cpp:106] Creating Layer bn_conv1
I0928 17:57:30.505719 19368 net.cpp:454] bn_conv1 <- conv1
I0928 17:57:30.505728 19368 net.cpp:397] bn_conv1 -> conv1 (in-place)
I0928 17:57:30.506492 19368 net.cpp:150] Setting up bn_conv1
I0928 17:57:30.506502 19368 net.cpp:157] Top shape: 1 64 241 257 (3963968)
I0928 17:57:30.506508 19368 net.cpp:165] Memory required for data: 52876060
I0928 17:57:30.506520 19368 layer_factory.hpp:77] Creating layer scale_conv1
I0928 17:57:30.506531 19368 net.cpp:106] Creating Layer scale_conv1
I0928 17:57:30.506536 19368 net.cpp:454] scale_conv1 <- conv1
I0928 17:57:30.506544 19368 net.cpp:397] scale_conv1 -> conv1 (in-place)
I0928 17:57:30.506582 19368 layer_factory.hpp:77] Creating layer scale_conv1
I0928 17:57:30.506721 19368 net.cpp:150] Setting up scale_conv1
I0928 17:57:30.506727 19368 net.cpp:157] Top shape: 1 64 241 257 (3963968)
I0928 17:57:30.506732 19368 net.cpp:165] Memory required for data: 68731932
I0928 17:57:30.506742 19368 layer_factory.hpp:77] Creating layer conv1_relu
I0928 17:57:30.506749 19368 net.cpp:106] Creating Layer conv1_relu
I0928 17:57:30.506754 19368 net.cpp:454] conv1_relu <- conv1
I0928 17:57:30.506762 19368 net.cpp:397] conv1_relu -> conv1 (in-place)
I0928 17:57:30.506768 19368 net.cpp:150] Setting up conv1_relu
I0928 17:57:30.506774 19368 net.cpp:157] Top shape: 1 64 241 257 (3963968)
I0928 17:57:30.506779 19368 net.cpp:165] Memory required for data: 84587804
I0928 17:57:30.506784 19368 layer_factory.hpp:77] Creating layer pool1
I0928 17:57:30.506791 19368 net.cpp:106] Creating Layer pool1
I0928 17:57:30.506796 19368 net.cpp:454] pool1 <- conv1
I0928 17:57:30.506817 19368 net.cpp:411] pool1 -> pool1
I0928 17:57:30.506857 19368 net.cpp:150] Setting up pool1
I0928 17:57:30.506862 19368 net.cpp:157] Top shape: 1 64 121 129 (998976)
I0928 17:57:30.506867 19368 net.cpp:165] Memory required for data: 88583708
I0928 17:57:30.506871 19368 layer_factory.hpp:77] Creating layer pool1_pool1_0_split
I0928 17:57:30.506880 19368 net.cpp:106] Creating Layer pool1_pool1_0_split
I0928 17:57:30.506884 19368 net.cpp:454] pool1_pool1_0_split <- pool1
I0928 17:57:30.506891 19368 net.cpp:411] pool1_pool1_0_split -> pool1_pool1_0_split_0
I0928 17:57:30.506903 19368 net.cpp:411] pool1_pool1_0_split -> pool1_pool1_0_split_1
I0928 17:57:30.506933 19368 net.cpp:150] Setting up pool1_pool1_0_split
I0928 17:57:30.506940 19368 net.cpp:157] Top shape: 1 64 121 129 (998976)
I0928 17:57:30.506947 19368 net.cpp:157] Top shape: 1 64 121 129 (998976)
I0928 17:57:30.506950 19368 net.cpp:165] Memory required for data: 96575516
I0928 17:57:30.506955 19368 layer_factory.hpp:77] Creating layer res2a_branch1
I0928 17:57:30.506965 19368 net.cpp:106] Creating Layer res2a_branch1
I0928 17:57:30.506970 19368 net.cpp:454] res2a_branch1 <- pool1_pool1_0_split_0
I0928 17:57:30.506978 19368 net.cpp:411] res2a_branch1 -> res2a_branch1
I0928 17:57:30.507133 19368 net.cpp:150] Setting up res2a_branch1
I0928 17:57:30.507138 19368 net.cpp:157] Top shape: 1 256 121 129 (3995904)
I0928 17:57:30.507156 19368 net.cpp:165] Memory required for data: 112559132
I0928 17:57:30.507160 19368 layer_factory.hpp:77] Creating layer bn2a_branch1
I0928 17:57:30.507167 19368 net.cpp:106] Creating Layer bn2a_branch1
I0928 17:57:30.507172 19368 net.cpp:454] bn2a_branch1 <- res2a_branch1
I0928 17:57:30.507192 19368 net.cpp:397] bn2a_branch1 -> res2a_branch1 (in-place)
I0928 17:57:30.507329 19368 net.cpp:150] Setting up bn2a_branch1
I0928 17:57:30.507334 19368 net.cpp:157] Top shape: 1 256 121 129 (3995904)
I0928 17:57:30.507352 19368 net.cpp:165] Memory required for data: 128542748
I0928 17:57:30.507359 19368 layer_factory.hpp:77] Creating layer scale2a_branch1
I0928 17:57:30.507364 19368 net.cpp:106] Creating Layer scale2a_branch1
I0928 17:57:30.507380 19368 net.cpp:454] scale2a_branch1 <- res2a_branch1
I0928 17:57:30.507385 19368 net.cpp:397] scale2a_branch1 -> res2a_branch1 (in-place)
I0928 17:57:30.507436 19368 layer_factory.hpp:77] Creating layer scale2a_branch1
I0928 17:57:30.507539 19368 net.cpp:150] Setting up scale2a_branch1
I0928 17:57:30.507544 19368 net.cpp:157] Top shape: 1 256 121 129 (3995904)
I0928 17:57:30.507562 19368 net.cpp:165] Memory required for data: 144526364
I0928 17:57:30.507568 19368 layer_factory.hpp:77] Creating layer res2a_branch2a
I0928 17:57:30.507575 19368 net.cpp:106] Creating Layer res2a_branch2a
I0928 17:57:30.507577 19368 net.cpp:454] res2a_branch2a <- pool1_pool1_0_split_1
I0928 17:57:30.507585 19368 net.cpp:411] res2a_branch2a -> res2a_branch2a
I0928 17:57:30.508376 19368 net.cpp:150] Setting up res2a_branch2a
I0928 17:57:30.508385 19368 net.cpp:157] Top shape: 1 64 121 129 (998976)
I0928 17:57:30.508388 19368 net.cpp:165] Memory required for data: 148522268
I0928 17:57:30.508395 19368 layer_factory.hpp:77] Creating layer bn2a_branch2a
I0928 17:57:30.508402 19368 net.cpp:106] Creating Layer bn2a_branch2a
I0928 17:57:30.508406 19368 net.cpp:454] bn2a_branch2a <- res2a_branch2a
I0928 17:57:30.508411 19368 net.cpp:397] bn2a_branch2a -> res2a_branch2a (in-place)
I0928 17:57:30.508536 19368 net.cpp:150] Setting up bn2a_branch2a
I0928 17:57:30.508541 19368 net.cpp:157] Top shape: 1 64 121 129 (998976)
I0928 17:57:30.508544 19368 net.cpp:165] Memory required for data: 152518172
I0928 17:57:30.508549 19368 layer_factory.hpp:77] Creating layer scale2a_branch2a
I0928 17:57:30.508556 19368 net.cpp:106] Creating Layer scale2a_branch2a
I0928 17:57:30.508559 19368 net.cpp:454] scale2a_branch2a <- res2a_branch2a
I0928 17:57:30.508563 19368 net.cpp:397] scale2a_branch2a -> res2a_branch2a (in-place)
I0928 17:57:30.508589 19368 layer_factory.hpp:77] Creating layer scale2a_branch2a
I0928 17:57:30.508677 19368 net.cpp:150] Setting up scale2a_branch2a
I0928 17:57:30.508690 19368 net.cpp:157] Top shape: 1 64 121 129 (998976)
I0928 17:57:30.508693 19368 net.cpp:165] Memory required for data: 156514076
I0928 17:57:30.508702 19368 layer_factory.hpp:77] Creating layer res2a_branch2a_relu
I0928 17:57:30.508708 19368 net.cpp:106] Creating Layer res2a_branch2a_relu
I0928 17:57:30.508710 19368 net.cpp:454] res2a_branch2a_relu <- res2a_branch2a
I0928 17:57:30.508714 19368 net.cpp:397] res2a_branch2a_relu -> res2a_branch2a (in-place)
I0928 17:57:30.508719 19368 net.cpp:150] Setting up res2a_branch2a_relu
I0928 17:57:30.508724 19368 net.cpp:157] Top shape: 1 64 121 129 (998976)
I0928 17:57:30.508728 19368 net.cpp:165] Memory required for data: 160509980
I0928 17:57:30.508730 19368 layer_factory.hpp:77] Creating layer res2a_branch2b
I0928 17:57:30.508736 19368 net.cpp:106] Creating Layer res2a_branch2b
I0928 17:57:30.508739 19368 net.cpp:454] res2a_branch2b <- res2a_branch2a
I0928 17:57:30.508744 19368 net.cpp:411] res2a_branch2b -> res2a_branch2b
I0928 17:57:30.508877 19368 net.cpp:150] Setting up res2a_branch2b
I0928 17:57:30.508882 19368 net.cpp:157] Top shape: 1 64 121 129 (998976)
I0928 17:57:30.508886 19368 net.cpp:165] Memory required for data: 164505884
I0928 17:57:30.508890 19368 layer_factory.hpp:77] Creating layer bn2a_branch2b
I0928 17:57:30.508895 19368 net.cpp:106] Creating Layer bn2a_branch2b
I0928 17:57:30.508899 19368 net.cpp:454] bn2a_branch2b <- res2a_branch2b
I0928 17:57:30.508904 19368 net.cpp:397] bn2a_branch2b -> res2a_branch2b (in-place)
I0928 17:57:30.509017 19368 net.cpp:150] Setting up bn2a_branch2b
I0928 17:57:30.509022 19368 net.cpp:157] Top shape: 1 64 121 129 (998976)
I0928 17:57:30.509025 19368 net.cpp:165] Memory required for data: 168501788
I0928 17:57:30.509032 19368 layer_factory.hpp:77] Creating layer scale2a_branch2b
I0928 17:57:30.509037 19368 net.cpp:106] Creating Layer scale2a_branch2b
I0928 17:57:30.509039 19368 net.cpp:454] scale2a_branch2b <- res2a_branch2b
I0928 17:57:30.509044 19368 net.cpp:397] scale2a_branch2b -> res2a_branch2b (in-place)
I0928 17:57:30.509068 19368 layer_factory.hpp:77] Creating layer scale2a_branch2b
I0928 17:57:30.509152 19368 net.cpp:150] Setting up scale2a_branch2b
I0928 17:57:30.509157 19368 net.cpp:157] Top shape: 1 64 121 129 (998976)
I0928 17:57:30.509161 19368 net.cpp:165] Memory required for data: 172497692
I0928 17:57:30.509166 19368 layer_factory.hpp:77] Creating layer res2a_branch2b_relu
I0928 17:57:30.509171 19368 net.cpp:106] Creating Layer res2a_branch2b_relu
I0928 17:57:30.509174 19368 net.cpp:454] res2a_branch2b_relu <- res2a_branch2b
I0928 17:57:30.509178 19368 net.cpp:397] res2a_branch2b_relu -> res2a_branch2b (in-place)
I0928 17:57:30.509183 19368 net.cpp:150] Setting up res2a_branch2b_relu
I0928 17:57:30.509187 19368 net.cpp:157] Top shape: 1 64 121 129 (998976)
I0928 17:57:30.509191 19368 net.cpp:165] Memory required for data: 176493596
I0928 17:57:30.509193 19368 layer_factory.hpp:77] Creating layer res2a_branch2c
I0928 17:57:30.509199 19368 net.cpp:106] Creating Layer res2a_branch2c
I0928 17:57:30.509202 19368 net.cpp:454] res2a_branch2c <- res2a_branch2b
I0928 17:57:30.509207 19368 net.cpp:411] res2a_branch2c -> res2a_branch2c
I0928 17:57:30.509327 19368 net.cpp:150] Setting up res2a_branch2c
I0928 17:57:30.509332 19368 net.cpp:157] Top shape: 1 256 121 129 (3995904)
I0928 17:57:30.509335 19368 net.cpp:165] Memory required for data: 192477212
I0928 17:57:30.509341 19368 layer_factory.hpp:77] Creating layer bn2a_branch2c
I0928 17:57:30.509344 19368 net.cpp:106] Creating Layer bn2a_branch2c
I0928 17:57:30.509348 19368 net.cpp:454] bn2a_branch2c <- res2a_branch2c
I0928 17:57:30.509353 19368 net.cpp:397] bn2a_branch2c -> res2a_branch2c (in-place)
I0928 17:57:30.509457 19368 net.cpp:150] Setting up bn2a_branch2c
I0928 17:57:30.509462 19368 net.cpp:157] Top shape: 1 256 121 129 (3995904)
I0928 17:57:30.509466 19368 net.cpp:165] Memory required for data: 208460828
I0928 17:57:30.509471 19368 layer_factory.hpp:77] Creating layer scale2a_branch2c
I0928 17:57:30.509483 19368 net.cpp:106] Creating Layer scale2a_branch2c
I0928 17:57:30.509486 19368 net.cpp:454] scale2a_branch2c <- res2a_branch2c
I0928 17:57:30.509492 19368 net.cpp:397] scale2a_branch2c -> res2a_branch2c (in-place)
I0928 17:57:30.509516 19368 layer_factory.hpp:77] Creating layer scale2a_branch2c
I0928 17:57:30.509632 19368 net.cpp:150] Setting up scale2a_branch2c
I0928 17:57:30.509639 19368 net.cpp:157] Top shape: 1 256 121 129 (3995904)
I0928 17:57:30.509641 19368 net.cpp:165] Memory required for data: 224444444
I0928 17:57:30.509647 19368 layer_factory.hpp:77] Creating layer res2a
I0928 17:57:30.509651 19368 net.cpp:106] Creating Layer res2a
I0928 17:57:30.509654 19368 net.cpp:454] res2a <- res2a_branch1
I0928 17:57:30.509660 19368 net.cpp:454] res2a <- res2a_branch2c
I0928 17:57:30.509663 19368 net.cpp:411] res2a -> res2a
I0928 17:57:30.509680 19368 net.cpp:150] Setting up res2a
I0928 17:57:30.509685 19368 net.cpp:157] Top shape: 1 256 121 129 (3995904)
I0928 17:57:30.509688 19368 net.cpp:165] Memory required for data: 240428060
I0928 17:57:30.509691 19368 layer_factory.hpp:77] Creating layer res2a_relu
I0928 17:57:30.509696 19368 net.cpp:106] Creating Layer res2a_relu
I0928 17:57:30.509698 19368 net.cpp:454] res2a_relu <- res2a
I0928 17:57:30.509703 19368 net.cpp:397] res2a_relu -> res2a (in-place)
I0928 17:57:30.509707 19368 net.cpp:150] Setting up res2a_relu
I0928 17:57:30.509711 19368 net.cpp:157] Top shape: 1 256 121 129 (3995904)
I0928 17:57:30.509714 19368 net.cpp:165] Memory required for data: 256411676
I0928 17:57:30.509717 19368 layer_factory.hpp:77] Creating layer res2a_res2a_relu_0_split
I0928 17:57:30.509721 19368 net.cpp:106] Creating Layer res2a_res2a_relu_0_split
I0928 17:57:30.509726 19368 net.cpp:454] res2a_res2a_relu_0_split <- res2a
I0928 17:57:30.509729 19368 net.cpp:411] res2a_res2a_relu_0_split -> res2a_res2a_relu_0_split_0
I0928 17:57:30.509735 19368 net.cpp:411] res2a_res2a_relu_0_split -> res2a_res2a_relu_0_split_1
I0928 17:57:30.509758 19368 net.cpp:150] Setting up res2a_res2a_relu_0_split
I0928 17:57:30.509763 19368 net.cpp:157] Top shape: 1 256 121 129 (3995904)
I0928 17:57:30.509766 19368 net.cpp:157] Top shape: 1 256 121 129 (3995904)
I0928 17:57:30.509769 19368 net.cpp:165] Memory required for data: 288378908
I0928 17:57:30.509773 19368 layer_factory.hpp:77] Creating layer res2b_branch2a
I0928 17:57:30.509778 19368 net.cpp:106] Creating Layer res2b_branch2a
I0928 17:57:30.509781 19368 net.cpp:454] res2b_branch2a <- res2a_res2a_relu_0_split_0
I0928 17:57:30.509788 19368 net.cpp:411] res2b_branch2a -> res2b_branch2a
I0928 17:57:30.509907 19368 net.cpp:150] Setting up res2b_branch2a
I0928 17:57:30.509912 19368 net.cpp:157] Top shape: 1 64 121 129 (998976)
I0928 17:57:30.509915 19368 net.cpp:165] Memory required for data: 292374812
I0928 17:57:30.509920 19368 layer_factory.hpp:77] Creating layer bn2b_branch2a
I0928 17:57:30.509925 19368 net.cpp:106] Creating Layer bn2b_branch2a
I0928 17:57:30.509929 19368 net.cpp:454] bn2b_branch2a <- res2b_branch2a
I0928 17:57:30.509933 19368 net.cpp:397] bn2b_branch2a -> res2b_branch2a (in-place)
I0928 17:57:30.510046 19368 net.cpp:150] Setting up bn2b_branch2a
I0928 17:57:30.510051 19368 net.cpp:157] Top shape: 1 64 121 129 (998976)
I0928 17:57:30.510053 19368 net.cpp:165] Memory required for data: 296370716
I0928 17:57:30.510063 19368 layer_factory.hpp:77] Creating layer scale2b_branch2a
I0928 17:57:30.510069 19368 net.cpp:106] Creating Layer scale2b_branch2a
I0928 17:57:30.510072 19368 net.cpp:454] scale2b_branch2a <- res2b_branch2a
I0928 17:57:30.510077 19368 net.cpp:397] scale2b_branch2a -> res2b_branch2a (in-place)
I0928 17:57:30.510102 19368 layer_factory.hpp:77] Creating layer scale2b_branch2a
I0928 17:57:30.510188 19368 net.cpp:150] Setting up scale2b_branch2a
I0928 17:57:30.510193 19368 net.cpp:157] Top shape: 1 64 121 129 (998976)
I0928 17:57:30.510196 19368 net.cpp:165] Memory required for data: 300366620
I0928 17:57:30.510202 19368 layer_factory.hpp:77] Creating layer res2b_branch2a_relu
I0928 17:57:30.510210 19368 net.cpp:106] Creating Layer res2b_branch2a_relu
I0928 17:57:30.510221 19368 net.cpp:454] res2b_branch2a_relu <- res2b_branch2a
I0928 17:57:30.510224 19368 net.cpp:397] res2b_branch2a_relu -> res2b_branch2a (in-place)
I0928 17:57:30.510229 19368 net.cpp:150] Setting up res2b_branch2a_relu
I0928 17:57:30.510233 19368 net.cpp:157] Top shape: 1 64 121 129 (998976)
I0928 17:57:30.510236 19368 net.cpp:165] Memory required for data: 304362524
I0928 17:57:30.510239 19368 layer_factory.hpp:77] Creating layer res2b_branch2b
I0928 17:57:30.510246 19368 net.cpp:106] Creating Layer res2b_branch2b
I0928 17:57:30.510248 19368 net.cpp:454] res2b_branch2b <- res2b_branch2a
I0928 17:57:30.510254 19368 net.cpp:411] res2b_branch2b -> res2b_branch2b
I0928 17:57:30.510385 19368 net.cpp:150] Setting up res2b_branch2b
I0928 17:57:30.510390 19368 net.cpp:157] Top shape: 1 64 121 129 (998976)
I0928 17:57:30.510393 19368 net.cpp:165] Memory required for data: 308358428
I0928 17:57:30.510397 19368 layer_factory.hpp:77] Creating layer bn2b_branch2b
I0928 17:57:30.510403 19368 net.cpp:106] Creating Layer bn2b_branch2b
I0928 17:57:30.510406 19368 net.cpp:454] bn2b_branch2b <- res2b_branch2b
I0928 17:57:30.510411 19368 net.cpp:397] bn2b_branch2b -> res2b_branch2b (in-place)
I0928 17:57:30.510525 19368 net.cpp:150] Setting up bn2b_branch2b
I0928 17:57:30.510530 19368 net.cpp:157] Top shape: 1 64 121 129 (998976)
I0928 17:57:30.510534 19368 net.cpp:165] Memory required for data: 312354332
I0928 17:57:30.510540 19368 layer_factory.hpp:77] Creating layer scale2b_branch2b
I0928 17:57:30.510545 19368 net.cpp:106] Creating Layer scale2b_branch2b
I0928 17:57:30.510547 19368 net.cpp:454] scale2b_branch2b <- res2b_branch2b
I0928 17:57:30.510551 19368 net.cpp:397] scale2b_branch2b -> res2b_branch2b (in-place)
I0928 17:57:30.510576 19368 layer_factory.hpp:77] Creating layer scale2b_branch2b
I0928 17:57:30.510663 19368 net.cpp:150] Setting up scale2b_branch2b
I0928 17:57:30.510668 19368 net.cpp:157] Top shape: 1 64 121 129 (998976)
I0928 17:57:30.510671 19368 net.cpp:165] Memory required for data: 316350236
I0928 17:57:30.510676 19368 layer_factory.hpp:77] Creating layer res2b_branch2b_relu
I0928 17:57:30.510681 19368 net.cpp:106] Creating Layer res2b_branch2b_relu
I0928 17:57:30.510684 19368 net.cpp:454] res2b_branch2b_relu <- res2b_branch2b
I0928 17:57:30.510689 19368 net.cpp:397] res2b_branch2b_relu -> res2b_branch2b (in-place)
I0928 17:57:30.510694 19368 net.cpp:150] Setting up res2b_branch2b_relu
I0928 17:57:30.510697 19368 net.cpp:157] Top shape: 1 64 121 129 (998976)
I0928 17:57:30.510699 19368 net.cpp:165] Memory required for data: 320346140
I0928 17:57:30.510702 19368 layer_factory.hpp:77] Creating layer res2b_branch2c
I0928 17:57:30.510709 19368 net.cpp:106] Creating Layer res2b_branch2c
I0928 17:57:30.510711 19368 net.cpp:454] res2b_branch2c <- res2b_branch2b
I0928 17:57:30.510716 19368 net.cpp:411] res2b_branch2c -> res2b_branch2c
I0928 17:57:30.510835 19368 net.cpp:150] Setting up res2b_branch2c
I0928 17:57:30.510840 19368 net.cpp:157] Top shape: 1 256 121 129 (3995904)
I0928 17:57:30.510843 19368 net.cpp:165] Memory required for data: 336329756
I0928 17:57:30.510848 19368 layer_factory.hpp:77] Creating layer bn2b_branch2c
I0928 17:57:30.510852 19368 net.cpp:106] Creating Layer bn2b_branch2c
I0928 17:57:30.510856 19368 net.cpp:454] bn2b_branch2c <- res2b_branch2c
I0928 17:57:30.510861 19368 net.cpp:397] bn2b_branch2c -> res2b_branch2c (in-place)
I0928 17:57:30.510967 19368 net.cpp:150] Setting up bn2b_branch2c
I0928 17:57:30.510972 19368 net.cpp:157] Top shape: 1 256 121 129 (3995904)
I0928 17:57:30.510975 19368 net.cpp:165] Memory required for data: 352313372
I0928 17:57:30.510980 19368 layer_factory.hpp:77] Creating layer scale2b_branch2c
I0928 17:57:30.510985 19368 net.cpp:106] Creating Layer scale2b_branch2c
I0928 17:57:30.510988 19368 net.cpp:454] scale2b_branch2c <- res2b_branch2c
I0928 17:57:30.510993 19368 net.cpp:397] scale2b_branch2c -> res2b_branch2c (in-place)
I0928 17:57:30.511018 19368 layer_factory.hpp:77] Creating layer scale2b_branch2c
I0928 17:57:30.511096 19368 net.cpp:150] Setting up scale2b_branch2c
I0928 17:57:30.511106 19368 net.cpp:157] Top shape: 1 256 121 129 (3995904)
I0928 17:57:30.511111 19368 net.cpp:165] Memory required for data: 368296988
I0928 17:57:30.511116 19368 layer_factory.hpp:77] Creating layer res2b
I0928 17:57:30.511121 19368 net.cpp:106] Creating Layer res2b
I0928 17:57:30.511124 19368 net.cpp:454] res2b <- res2a_res2a_relu_0_split_1
I0928 17:57:30.511128 19368 net.cpp:454] res2b <- res2b_branch2c
I0928 17:57:30.511133 19368 net.cpp:411] res2b -> res2b
I0928 17:57:30.511148 19368 net.cpp:150] Setting up res2b
I0928 17:57:30.511152 19368 net.cpp:157] Top shape: 1 256 121 129 (3995904)
I0928 17:57:30.511157 19368 net.cpp:165] Memory required for data: 384280604
I0928 17:57:30.511159 19368 layer_factory.hpp:77] Creating layer res2b_relu
I0928 17:57:30.511163 19368 net.cpp:106] Creating Layer res2b_relu
I0928 17:57:30.511167 19368 net.cpp:454] res2b_relu <- res2b
I0928 17:57:30.511171 19368 net.cpp:397] res2b_relu -> res2b (in-place)
I0928 17:57:30.511175 19368 net.cpp:150] Setting up res2b_relu
I0928 17:57:30.511179 19368 net.cpp:157] Top shape: 1 256 121 129 (3995904)
I0928 17:57:30.511183 19368 net.cpp:165] Memory required for data: 400264220
I0928 17:57:30.511185 19368 layer_factory.hpp:77] Creating layer res2b_res2b_relu_0_split
I0928 17:57:30.511189 19368 net.cpp:106] Creating Layer res2b_res2b_relu_0_split
I0928 17:57:30.511193 19368 net.cpp:454] res2b_res2b_relu_0_split <- res2b
I0928 17:57:30.511198 19368 net.cpp:411] res2b_res2b_relu_0_split -> res2b_res2b_relu_0_split_0
I0928 17:57:30.511202 19368 net.cpp:411] res2b_res2b_relu_0_split -> res2b_res2b_relu_0_split_1
I0928 17:57:30.511224 19368 net.cpp:150] Setting up res2b_res2b_relu_0_split
I0928 17:57:30.511229 19368 net.cpp:157] Top shape: 1 256 121 129 (3995904)
I0928 17:57:30.511234 19368 net.cpp:157] Top shape: 1 256 121 129 (3995904)
I0928 17:57:30.511236 19368 net.cpp:165] Memory required for data: 432231452
I0928 17:57:30.511240 19368 layer_factory.hpp:77] Creating layer res2c_branch2a
I0928 17:57:30.511245 19368 net.cpp:106] Creating Layer res2c_branch2a
I0928 17:57:30.511248 19368 net.cpp:454] res2c_branch2a <- res2b_res2b_relu_0_split_0
I0928 17:57:30.511253 19368 net.cpp:411] res2c_branch2a -> res2c_branch2a
I0928 17:57:30.511374 19368 net.cpp:150] Setting up res2c_branch2a
I0928 17:57:30.511379 19368 net.cpp:157] Top shape: 1 64 121 129 (998976)
I0928 17:57:30.511381 19368 net.cpp:165] Memory required for data: 436227356
I0928 17:57:30.511387 19368 layer_factory.hpp:77] Creating layer bn2c_branch2a
I0928 17:57:30.511392 19368 net.cpp:106] Creating Layer bn2c_branch2a
I0928 17:57:30.511395 19368 net.cpp:454] bn2c_branch2a <- res2c_branch2a
I0928 17:57:30.511400 19368 net.cpp:397] bn2c_branch2a -> res2c_branch2a (in-place)
I0928 17:57:30.511517 19368 net.cpp:150] Setting up bn2c_branch2a
I0928 17:57:30.511520 19368 net.cpp:157] Top shape: 1 64 121 129 (998976)
I0928 17:57:30.511523 19368 net.cpp:165] Memory required for data: 440223260
I0928 17:57:30.511529 19368 layer_factory.hpp:77] Creating layer scale2c_branch2a
I0928 17:57:30.511534 19368 net.cpp:106] Creating Layer scale2c_branch2a
I0928 17:57:30.511538 19368 net.cpp:454] scale2c_branch2a <- res2c_branch2a
I0928 17:57:30.511543 19368 net.cpp:397] scale2c_branch2a -> res2c_branch2a (in-place)
I0928 17:57:30.511566 19368 layer_factory.hpp:77] Creating layer scale2c_branch2a
I0928 17:57:30.511653 19368 net.cpp:150] Setting up scale2c_branch2a
I0928 17:57:30.521219 19368 net.cpp:157] Top shape: 1 64 121 129 (998976)
I0928 17:57:30.521226 19368 net.cpp:165] Memory required for data: 444219164
I0928 17:57:30.521236 19368 layer_factory.hpp:77] Creating layer res2c_branch2a_relu
I0928 17:57:30.521244 19368 net.cpp:106] Creating Layer res2c_branch2a_relu
I0928 17:57:30.521247 19368 net.cpp:454] res2c_branch2a_relu <- res2c_branch2a
I0928 17:57:30.521252 19368 net.cpp:397] res2c_branch2a_relu -> res2c_branch2a (in-place)
I0928 17:57:30.521258 19368 net.cpp:150] Setting up res2c_branch2a_relu
I0928 17:57:30.521263 19368 net.cpp:157] Top shape: 1 64 121 129 (998976)
I0928 17:57:30.521286 19368 net.cpp:165] Memory required for data: 448215068
I0928 17:57:30.521289 19368 layer_factory.hpp:77] Creating layer res2c_branch2b
I0928 17:57:30.521296 19368 net.cpp:106] Creating Layer res2c_branch2b
I0928 17:57:30.521299 19368 net.cpp:454] res2c_branch2b <- res2c_branch2a
I0928 17:57:30.521304 19368 net.cpp:411] res2c_branch2b -> res2c_branch2b
I0928 17:57:30.521443 19368 net.cpp:150] Setting up res2c_branch2b
I0928 17:57:30.521450 19368 net.cpp:157] Top shape: 1 64 121 129 (998976)
I0928 17:57:30.521452 19368 net.cpp:165] Memory required for data: 452210972
I0928 17:57:30.521457 19368 layer_factory.hpp:77] Creating layer bn2c_branch2b
I0928 17:57:30.521462 19368 net.cpp:106] Creating Layer bn2c_branch2b
I0928 17:57:30.521466 19368 net.cpp:454] bn2c_branch2b <- res2c_branch2b
I0928 17:57:30.521471 19368 net.cpp:397] bn2c_branch2b -> res2c_branch2b (in-place)
I0928 17:57:30.521606 19368 net.cpp:150] Setting up bn2c_branch2b
I0928 17:57:30.521612 19368 net.cpp:157] Top shape: 1 64 121 129 (998976)
I0928 17:57:30.521615 19368 net.cpp:165] Memory required for data: 456206876
I0928 17:57:30.521636 19368 layer_factory.hpp:77] Creating layer scale2c_branch2b
I0928 17:57:30.521641 19368 net.cpp:106] Creating Layer scale2c_branch2b
I0928 17:57:30.521644 19368 net.cpp:454] scale2c_branch2b <- res2c_branch2b
I0928 17:57:30.521649 19368 net.cpp:397] scale2c_branch2b -> res2c_branch2b (in-place)
I0928 17:57:30.521687 19368 layer_factory.hpp:77] Creating layer scale2c_branch2b
I0928 17:57:30.521801 19368 net.cpp:150] Setting up scale2c_branch2b
I0928 17:57:30.521806 19368 net.cpp:157] Top shape: 1 64 121 129 (998976)
I0928 17:57:30.521808 19368 net.cpp:165] Memory required for data: 460202780
I0928 17:57:30.521813 19368 layer_factory.hpp:77] Creating layer res2c_branch2b_relu
I0928 17:57:30.521829 19368 net.cpp:106] Creating Layer res2c_branch2b_relu
I0928 17:57:30.521832 19368 net.cpp:454] res2c_branch2b_relu <- res2c_branch2b
I0928 17:57:30.521836 19368 net.cpp:397] res2c_branch2b_relu -> res2c_branch2b (in-place)
I0928 17:57:30.521854 19368 net.cpp:150] Setting up res2c_branch2b_relu
I0928 17:57:30.521858 19368 net.cpp:157] Top shape: 1 64 121 129 (998976)
I0928 17:57:30.521873 19368 net.cpp:165] Memory required for data: 464198684
I0928 17:57:30.521876 19368 layer_factory.hpp:77] Creating layer res2c_branch2c
I0928 17:57:30.521881 19368 net.cpp:106] Creating Layer res2c_branch2c
I0928 17:57:30.521884 19368 net.cpp:454] res2c_branch2c <- res2c_branch2b
I0928 17:57:30.521888 19368 net.cpp:411] res2c_branch2c -> res2c_branch2c
I0928 17:57:30.522809 19368 net.cpp:150] Setting up res2c_branch2c
I0928 17:57:30.522819 19368 net.cpp:157] Top shape: 1 256 121 129 (3995904)
I0928 17:57:30.522821 19368 net.cpp:165] Memory required for data: 480182300
I0928 17:57:30.522826 19368 layer_factory.hpp:77] Creating layer bn2c_branch2c
I0928 17:57:30.522832 19368 net.cpp:106] Creating Layer bn2c_branch2c
I0928 17:57:30.522836 19368 net.cpp:454] bn2c_branch2c <- res2c_branch2c
I0928 17:57:30.522841 19368 net.cpp:397] bn2c_branch2c -> res2c_branch2c (in-place)
I0928 17:57:30.522944 19368 net.cpp:150] Setting up bn2c_branch2c
I0928 17:57:30.522949 19368 net.cpp:157] Top shape: 1 256 121 129 (3995904)
I0928 17:57:30.522953 19368 net.cpp:165] Memory required for data: 496165916
I0928 17:57:30.522958 19368 layer_factory.hpp:77] Creating layer scale2c_branch2c
I0928 17:57:30.522964 19368 net.cpp:106] Creating Layer scale2c_branch2c
I0928 17:57:30.522967 19368 net.cpp:454] scale2c_branch2c <- res2c_branch2c
I0928 17:57:30.522971 19368 net.cpp:397] scale2c_branch2c -> res2c_branch2c (in-place)
I0928 17:57:30.522994 19368 layer_factory.hpp:77] Creating layer scale2c_branch2c
I0928 17:57:30.523074 19368 net.cpp:150] Setting up scale2c_branch2c
I0928 17:57:30.523079 19368 net.cpp:157] Top shape: 1 256 121 129 (3995904)
I0928 17:57:30.523082 19368 net.cpp:165] Memory required for data: 512149532
I0928 17:57:30.523097 19368 layer_factory.hpp:77] Creating layer res2c
I0928 17:57:30.523102 19368 net.cpp:106] Creating Layer res2c
I0928 17:57:30.523113 19368 net.cpp:454] res2c <- res2b_res2b_relu_0_split_1
I0928 17:57:30.523118 19368 net.cpp:454] res2c <- res2c_branch2c
I0928 17:57:30.523123 19368 net.cpp:411] res2c -> res2c
I0928 17:57:30.523139 19368 net.cpp:150] Setting up res2c
I0928 17:57:30.523144 19368 net.cpp:157] Top shape: 1 256 121 129 (3995904)
I0928 17:57:30.523147 19368 net.cpp:165] Memory required for data: 528133148
I0928 17:57:30.523150 19368 layer_factory.hpp:77] Creating layer res2c_relu
I0928 17:57:30.523154 19368 net.cpp:106] Creating Layer res2c_relu
I0928 17:57:30.523157 19368 net.cpp:454] res2c_relu <- res2c
I0928 17:57:30.523161 19368 net.cpp:397] res2c_relu -> res2c (in-place)
I0928 17:57:30.523165 19368 net.cpp:150] Setting up res2c_relu
I0928 17:57:30.523169 19368 net.cpp:157] Top shape: 1 256 121 129 (3995904)
I0928 17:57:30.523172 19368 net.cpp:165] Memory required for data: 544116764
I0928 17:57:30.523175 19368 layer_factory.hpp:77] Creating layer res2c_res2c_relu_0_split
I0928 17:57:30.523180 19368 net.cpp:106] Creating Layer res2c_res2c_relu_0_split
I0928 17:57:30.523182 19368 net.cpp:454] res2c_res2c_relu_0_split <- res2c
I0928 17:57:30.523186 19368 net.cpp:411] res2c_res2c_relu_0_split -> res2c_res2c_relu_0_split_0
I0928 17:57:30.523192 19368 net.cpp:411] res2c_res2c_relu_0_split -> res2c_res2c_relu_0_split_1
I0928 17:57:30.523214 19368 net.cpp:150] Setting up res2c_res2c_relu_0_split
I0928 17:57:30.523218 19368 net.cpp:157] Top shape: 1 256 121 129 (3995904)
I0928 17:57:30.523221 19368 net.cpp:157] Top shape: 1 256 121 129 (3995904)
I0928 17:57:30.523226 19368 net.cpp:165] Memory required for data: 576083996
I0928 17:57:30.523228 19368 layer_factory.hpp:77] Creating layer res3a_branch1
I0928 17:57:30.523233 19368 net.cpp:106] Creating Layer res3a_branch1
I0928 17:57:30.523236 19368 net.cpp:454] res3a_branch1 <- res2c_res2c_relu_0_split_0
I0928 17:57:30.523242 19368 net.cpp:411] res3a_branch1 -> res3a_branch1
I0928 17:57:30.523414 19368 net.cpp:150] Setting up res3a_branch1
I0928 17:57:30.523419 19368 net.cpp:157] Top shape: 1 512 61 65 (2030080)
I0928 17:57:30.523422 19368 net.cpp:165] Memory required for data: 584204316
I0928 17:57:30.523427 19368 layer_factory.hpp:77] Creating layer bn3a_branch1
I0928 17:57:30.523432 19368 net.cpp:106] Creating Layer bn3a_branch1
I0928 17:57:30.523435 19368 net.cpp:454] bn3a_branch1 <- res3a_branch1
I0928 17:57:30.523440 19368 net.cpp:397] bn3a_branch1 -> res3a_branch1 (in-place)
I0928 17:57:30.524241 19368 net.cpp:150] Setting up bn3a_branch1
I0928 17:57:30.524250 19368 net.cpp:157] Top shape: 1 512 61 65 (2030080)
I0928 17:57:30.524253 19368 net.cpp:165] Memory required for data: 592324636
I0928 17:57:30.524261 19368 layer_factory.hpp:77] Creating layer scale3a_branch1
I0928 17:57:30.524267 19368 net.cpp:106] Creating Layer scale3a_branch1
I0928 17:57:30.524271 19368 net.cpp:454] scale3a_branch1 <- res3a_branch1
I0928 17:57:30.524276 19368 net.cpp:397] scale3a_branch1 -> res3a_branch1 (in-place)
I0928 17:57:30.524300 19368 layer_factory.hpp:77] Creating layer scale3a_branch1
I0928 17:57:30.524374 19368 net.cpp:150] Setting up scale3a_branch1
I0928 17:57:30.524379 19368 net.cpp:157] Top shape: 1 512 61 65 (2030080)
I0928 17:57:30.524381 19368 net.cpp:165] Memory required for data: 600444956
I0928 17:57:30.524386 19368 layer_factory.hpp:77] Creating layer res3a_branch2a
I0928 17:57:30.524394 19368 net.cpp:106] Creating Layer res3a_branch2a
I0928 17:57:30.524397 19368 net.cpp:454] res3a_branch2a <- res2c_res2c_relu_0_split_1
I0928 17:57:30.524402 19368 net.cpp:411] res3a_branch2a -> res3a_branch2a
I0928 17:57:30.524529 19368 net.cpp:150] Setting up res3a_branch2a
I0928 17:57:30.524535 19368 net.cpp:157] Top shape: 1 128 61 65 (507520)
I0928 17:57:30.524538 19368 net.cpp:165] Memory required for data: 602475036
I0928 17:57:30.524543 19368 layer_factory.hpp:77] Creating layer bn3a_branch2a
I0928 17:57:30.524547 19368 net.cpp:106] Creating Layer bn3a_branch2a
I0928 17:57:30.524551 19368 net.cpp:454] bn3a_branch2a <- res3a_branch2a
I0928 17:57:30.524556 19368 net.cpp:397] bn3a_branch2a -> res3a_branch2a (in-place)
I0928 17:57:30.524670 19368 net.cpp:150] Setting up bn3a_branch2a
I0928 17:57:30.524675 19368 net.cpp:157] Top shape: 1 128 61 65 (507520)
I0928 17:57:30.524678 19368 net.cpp:165] Memory required for data: 604505116
I0928 17:57:30.524684 19368 layer_factory.hpp:77] Creating layer scale3a_branch2a
I0928 17:57:30.524689 19368 net.cpp:106] Creating Layer scale3a_branch2a
I0928 17:57:30.524693 19368 net.cpp:454] scale3a_branch2a <- res3a_branch2a
I0928 17:57:30.524698 19368 net.cpp:397] scale3a_branch2a -> res3a_branch2a (in-place)
I0928 17:57:30.524721 19368 layer_factory.hpp:77] Creating layer scale3a_branch2a
I0928 17:57:30.524796 19368 net.cpp:150] Setting up scale3a_branch2a
I0928 17:57:30.524801 19368 net.cpp:157] Top shape: 1 128 61 65 (507520)
I0928 17:57:30.524806 19368 net.cpp:165] Memory required for data: 606535196
I0928 17:57:30.524811 19368 layer_factory.hpp:77] Creating layer res3a_branch2a_relu
I0928 17:57:30.524816 19368 net.cpp:106] Creating Layer res3a_branch2a_relu
I0928 17:57:30.524818 19368 net.cpp:454] res3a_branch2a_relu <- res3a_branch2a
I0928 17:57:30.524823 19368 net.cpp:397] res3a_branch2a_relu -> res3a_branch2a (in-place)
I0928 17:57:30.524827 19368 net.cpp:150] Setting up res3a_branch2a_relu
I0928 17:57:30.524832 19368 net.cpp:157] Top shape: 1 128 61 65 (507520)
I0928 17:57:30.524834 19368 net.cpp:165] Memory required for data: 608565276
I0928 17:57:30.524837 19368 layer_factory.hpp:77] Creating layer res3a_branch2b
I0928 17:57:30.524849 19368 net.cpp:106] Creating Layer res3a_branch2b
I0928 17:57:30.524852 19368 net.cpp:454] res3a_branch2b <- res3a_branch2a
I0928 17:57:30.524857 19368 net.cpp:411] res3a_branch2b -> res3a_branch2b
I0928 17:57:30.525775 19368 net.cpp:150] Setting up res3a_branch2b
I0928 17:57:30.525786 19368 net.cpp:157] Top shape: 1 128 61 65 (507520)
I0928 17:57:30.525789 19368 net.cpp:165] Memory required for data: 610595356
I0928 17:57:30.525795 19368 layer_factory.hpp:77] Creating layer bn3a_branch2b
I0928 17:57:30.525804 19368 net.cpp:106] Creating Layer bn3a_branch2b
I0928 17:57:30.525806 19368 net.cpp:454] bn3a_branch2b <- res3a_branch2b
I0928 17:57:30.525811 19368 net.cpp:397] bn3a_branch2b -> res3a_branch2b (in-place)
I0928 17:57:30.525923 19368 net.cpp:150] Setting up bn3a_branch2b
I0928 17:57:30.525928 19368 net.cpp:157] Top shape: 1 128 61 65 (507520)
I0928 17:57:30.525930 19368 net.cpp:165] Memory required for data: 612625436
I0928 17:57:30.525936 19368 layer_factory.hpp:77] Creating layer scale3a_branch2b
I0928 17:57:30.525941 19368 net.cpp:106] Creating Layer scale3a_branch2b
I0928 17:57:30.525945 19368 net.cpp:454] scale3a_branch2b <- res3a_branch2b
I0928 17:57:30.525949 19368 net.cpp:397] scale3a_branch2b -> res3a_branch2b (in-place)
I0928 17:57:30.525974 19368 layer_factory.hpp:77] Creating layer scale3a_branch2b
I0928 17:57:30.526044 19368 net.cpp:150] Setting up scale3a_branch2b
I0928 17:57:30.526049 19368 net.cpp:157] Top shape: 1 128 61 65 (507520)
I0928 17:57:30.526052 19368 net.cpp:165] Memory required for data: 614655516
I0928 17:57:30.526058 19368 layer_factory.hpp:77] Creating layer res3a_branch2b_relu
I0928 17:57:30.551503 19368 net.cpp:106] Creating Layer res3a_branch2b_relu
I0928 17:57:30.551530 19368 net.cpp:454] res3a_branch2b_relu <- res3a_branch2b
I0928 17:57:30.551540 19368 net.cpp:397] res3a_branch2b_relu -> res3a_branch2b (in-place)
I0928 17:57:30.551564 19368 net.cpp:150] Setting up res3a_branch2b_relu
I0928 17:57:30.551573 19368 net.cpp:157] Top shape: 1 128 61 65 (507520)
I0928 17:57:30.551578 19368 net.cpp:165] Memory required for data: 616685596
I0928 17:57:30.551594 19368 layer_factory.hpp:77] Creating layer res3a_branch2c
I0928 17:57:30.551618 19368 net.cpp:106] Creating Layer res3a_branch2c
I0928 17:57:30.551623 19368 net.cpp:454] res3a_branch2c <- res3a_branch2b
I0928 17:57:30.551631 19368 net.cpp:411] res3a_branch2c -> res3a_branch2c
I0928 17:57:30.551904 19368 net.cpp:150] Setting up res3a_branch2c
I0928 17:57:30.551913 19368 net.cpp:157] Top shape: 1 512 61 65 (2030080)
I0928 17:57:30.551934 19368 net.cpp:165] Memory required for data: 624805916
I0928 17:57:30.551942 19368 layer_factory.hpp:77] Creating layer bn3a_branch2c
I0928 17:57:30.551951 19368 net.cpp:106] Creating Layer bn3a_branch2c
I0928 17:57:30.551956 19368 net.cpp:454] bn3a_branch2c <- res3a_branch2c
I0928 17:57:30.551964 19368 net.cpp:397] bn3a_branch2c -> res3a_branch2c (in-place)
I0928 17:57:30.552119 19368 net.cpp:150] Setting up bn3a_branch2c
I0928 17:57:30.552126 19368 net.cpp:157] Top shape: 1 512 61 65 (2030080)
I0928 17:57:30.552130 19368 net.cpp:165] Memory required for data: 632926236
I0928 17:57:30.552139 19368 layer_factory.hpp:77] Creating layer scale3a_branch2c
I0928 17:57:30.552148 19368 net.cpp:106] Creating Layer scale3a_branch2c
I0928 17:57:30.552153 19368 net.cpp:454] scale3a_branch2c <- res3a_branch2c
I0928 17:57:30.552160 19368 net.cpp:397] scale3a_branch2c -> res3a_branch2c (in-place)
I0928 17:57:30.552192 19368 layer_factory.hpp:77] Creating layer scale3a_branch2c
I0928 17:57:30.552296 19368 net.cpp:150] Setting up scale3a_branch2c
I0928 17:57:30.552304 19368 net.cpp:157] Top shape: 1 512 61 65 (2030080)
I0928 17:57:30.552309 19368 net.cpp:165] Memory required for data: 641046556
I0928 17:57:30.552317 19368 layer_factory.hpp:77] Creating layer res3a
I0928 17:57:30.552325 19368 net.cpp:106] Creating Layer res3a
I0928 17:57:30.552330 19368 net.cpp:454] res3a <- res3a_branch1
I0928 17:57:30.552335 19368 net.cpp:454] res3a <- res3a_branch2c
I0928 17:57:30.552341 19368 net.cpp:411] res3a -> res3a
I0928 17:57:30.552362 19368 net.cpp:150] Setting up res3a
I0928 17:57:30.552369 19368 net.cpp:157] Top shape: 1 512 61 65 (2030080)
I0928 17:57:30.552373 19368 net.cpp:165] Memory required for data: 649166876
I0928 17:57:30.552378 19368 layer_factory.hpp:77] Creating layer res3a_relu
I0928 17:57:30.552386 19368 net.cpp:106] Creating Layer res3a_relu
I0928 17:57:30.552390 19368 net.cpp:454] res3a_relu <- res3a
I0928 17:57:30.552397 19368 net.cpp:397] res3a_relu -> res3a (in-place)
I0928 17:57:30.552402 19368 net.cpp:150] Setting up res3a_relu
I0928 17:57:30.552409 19368 net.cpp:157] Top shape: 1 512 61 65 (2030080)
I0928 17:57:30.552413 19368 net.cpp:165] Memory required for data: 657287196
I0928 17:57:30.552418 19368 layer_factory.hpp:77] Creating layer res3a_res3a_relu_0_split
I0928 17:57:30.552424 19368 net.cpp:106] Creating Layer res3a_res3a_relu_0_split
I0928 17:57:30.552430 19368 net.cpp:454] res3a_res3a_relu_0_split <- res3a
I0928 17:57:30.552436 19368 net.cpp:411] res3a_res3a_relu_0_split -> res3a_res3a_relu_0_split_0
I0928 17:57:30.552445 19368 net.cpp:411] res3a_res3a_relu_0_split -> res3a_res3a_relu_0_split_1
I0928 17:57:30.552477 19368 net.cpp:150] Setting up res3a_res3a_relu_0_split
I0928 17:57:30.552484 19368 net.cpp:157] Top shape: 1 512 61 65 (2030080)
I0928 17:57:30.552490 19368 net.cpp:157] Top shape: 1 512 61 65 (2030080)
I0928 17:57:30.552495 19368 net.cpp:165] Memory required for data: 673527836
I0928 17:57:30.552500 19368 layer_factory.hpp:77] Creating layer res3b1_branch2a
I0928 17:57:30.552508 19368 net.cpp:106] Creating Layer res3b1_branch2a
I0928 17:57:30.552513 19368 net.cpp:454] res3b1_branch2a <- res3a_res3a_relu_0_split_0
I0928 17:57:30.552520 19368 net.cpp:411] res3b1_branch2a -> res3b1_branch2a
I0928 17:57:30.552724 19368 net.cpp:150] Setting up res3b1_branch2a
I0928 17:57:30.552732 19368 net.cpp:157] Top shape: 1 128 61 65 (507520)
I0928 17:57:30.552736 19368 net.cpp:165] Memory required for data: 675557916
I0928 17:57:30.552743 19368 layer_factory.hpp:77] Creating layer bn3b1_branch2a
I0928 17:57:30.552750 19368 net.cpp:106] Creating Layer bn3b1_branch2a
I0928 17:57:30.552757 19368 net.cpp:454] bn3b1_branch2a <- res3b1_branch2a
I0928 17:57:30.552763 19368 net.cpp:397] bn3b1_branch2a -> res3b1_branch2a (in-place)
I0928 17:57:30.552908 19368 net.cpp:150] Setting up bn3b1_branch2a
I0928 17:57:30.552914 19368 net.cpp:157] Top shape: 1 128 61 65 (507520)
I0928 17:57:30.552920 19368 net.cpp:165] Memory required for data: 677587996
I0928 17:57:30.552929 19368 layer_factory.hpp:77] Creating layer scale3b1_branch2a
I0928 17:57:30.552943 19368 net.cpp:106] Creating Layer scale3b1_branch2a
I0928 17:57:30.552948 19368 net.cpp:454] scale3b1_branch2a <- res3b1_branch2a
I0928 17:57:30.552956 19368 net.cpp:397] scale3b1_branch2a -> res3b1_branch2a (in-place)
I0928 17:57:30.552990 19368 layer_factory.hpp:77] Creating layer scale3b1_branch2a
I0928 17:57:30.553086 19368 net.cpp:150] Setting up scale3b1_branch2a
I0928 17:57:30.553094 19368 net.cpp:157] Top shape: 1 128 61 65 (507520)
I0928 17:57:30.553099 19368 net.cpp:165] Memory required for data: 679618076
I0928 17:57:30.553108 19368 layer_factory.hpp:77] Creating layer res3b1_branch2a_relu
I0928 17:57:30.553115 19368 net.cpp:106] Creating Layer res3b1_branch2a_relu
I0928 17:57:30.553120 19368 net.cpp:454] res3b1_branch2a_relu <- res3b1_branch2a
I0928 17:57:30.553128 19368 net.cpp:397] res3b1_branch2a_relu -> res3b1_branch2a (in-place)
I0928 17:57:30.553133 19368 net.cpp:150] Setting up res3b1_branch2a_relu
I0928 17:57:30.553139 19368 net.cpp:157] Top shape: 1 128 61 65 (507520)
I0928 17:57:30.553143 19368 net.cpp:165] Memory required for data: 681648156
I0928 17:57:30.553148 19368 layer_factory.hpp:77] Creating layer res3b1_branch2b
I0928 17:57:30.553158 19368 net.cpp:106] Creating Layer res3b1_branch2b
I0928 17:57:30.553165 19368 net.cpp:454] res3b1_branch2b <- res3b1_branch2a
I0928 17:57:30.553172 19368 net.cpp:411] res3b1_branch2b -> res3b1_branch2b
I0928 17:57:30.553436 19368 net.cpp:150] Setting up res3b1_branch2b
I0928 17:57:30.553445 19368 net.cpp:157] Top shape: 1 128 61 65 (507520)
I0928 17:57:30.553450 19368 net.cpp:165] Memory required for data: 683678236
I0928 17:57:30.553457 19368 layer_factory.hpp:77] Creating layer bn3b1_branch2b
I0928 17:57:30.553465 19368 net.cpp:106] Creating Layer bn3b1_branch2b
I0928 17:57:30.553470 19368 net.cpp:454] bn3b1_branch2b <- res3b1_branch2b
I0928 17:57:30.553478 19368 net.cpp:397] bn3b1_branch2b -> res3b1_branch2b (in-place)
I0928 17:57:30.553678 19368 net.cpp:150] Setting up bn3b1_branch2b
I0928 17:57:30.553689 19368 net.cpp:157] Top shape: 1 128 61 65 (507520)
I0928 17:57:30.553694 19368 net.cpp:165] Memory required for data: 685708316
I0928 17:57:30.553704 19368 layer_factory.hpp:77] Creating layer scale3b1_branch2b
I0928 17:57:30.553725 19368 net.cpp:106] Creating Layer scale3b1_branch2b
I0928 17:57:30.553730 19368 net.cpp:454] scale3b1_branch2b <- res3b1_branch2b
I0928 17:57:30.553735 19368 net.cpp:397] scale3b1_branch2b -> res3b1_branch2b (in-place)
I0928 17:57:30.553783 19368 layer_factory.hpp:77] Creating layer scale3b1_branch2b
I0928 17:57:30.553861 19368 net.cpp:150] Setting up scale3b1_branch2b
I0928 17:57:30.553869 19368 net.cpp:157] Top shape: 1 128 61 65 (507520)
I0928 17:57:30.553871 19368 net.cpp:165] Memory required for data: 687738396
I0928 17:57:30.553877 19368 layer_factory.hpp:77] Creating layer res3b1_branch2b_relu
I0928 17:57:30.553882 19368 net.cpp:106] Creating Layer res3b1_branch2b_relu
I0928 17:57:30.553886 19368 net.cpp:454] res3b1_branch2b_relu <- res3b1_branch2b
I0928 17:57:30.553890 19368 net.cpp:397] res3b1_branch2b_relu -> res3b1_branch2b (in-place)
I0928 17:57:30.553894 19368 net.cpp:150] Setting up res3b1_branch2b_relu
I0928 17:57:30.553898 19368 net.cpp:157] Top shape: 1 128 61 65 (507520)
I0928 17:57:30.553901 19368 net.cpp:165] Memory required for data: 689768476
I0928 17:57:30.553905 19368 layer_factory.hpp:77] Creating layer res3b1_branch2c
I0928 17:57:30.553910 19368 net.cpp:106] Creating Layer res3b1_branch2c
I0928 17:57:30.553913 19368 net.cpp:454] res3b1_branch2c <- res3b1_branch2b
I0928 17:57:30.553920 19368 net.cpp:411] res3b1_branch2c -> res3b1_branch2c
I0928 17:57:30.554884 19368 net.cpp:150] Setting up res3b1_branch2c
I0928 17:57:30.554895 19368 net.cpp:157] Top shape: 1 512 61 65 (2030080)
I0928 17:57:30.554898 19368 net.cpp:165] Memory required for data: 697888796
I0928 17:57:30.554904 19368 layer_factory.hpp:77] Creating layer bn3b1_branch2c
I0928 17:57:30.554911 19368 net.cpp:106] Creating Layer bn3b1_branch2c
I0928 17:57:30.554914 19368 net.cpp:454] bn3b1_branch2c <- res3b1_branch2c
I0928 17:57:30.554929 19368 net.cpp:397] bn3b1_branch2c -> res3b1_branch2c (in-place)
I0928 17:57:30.555047 19368 net.cpp:150] Setting up bn3b1_branch2c
I0928 17:57:30.555052 19368 net.cpp:157] Top shape: 1 512 61 65 (2030080)
I0928 17:57:30.555055 19368 net.cpp:165] Memory required for data: 706009116
I0928 17:57:30.555063 19368 layer_factory.hpp:77] Creating layer scale3b1_branch2c
I0928 17:57:30.555068 19368 net.cpp:106] Creating Layer scale3b1_branch2c
I0928 17:57:30.555073 19368 net.cpp:454] scale3b1_branch2c <- res3b1_branch2c
I0928 17:57:30.555076 19368 net.cpp:397] scale3b1_branch2c -> res3b1_branch2c (in-place)
I0928 17:57:30.555100 19368 layer_factory.hpp:77] Creating layer scale3b1_branch2c
I0928 17:57:30.555176 19368 net.cpp:150] Setting up scale3b1_branch2c
I0928 17:57:30.555181 19368 net.cpp:157] Top shape: 1 512 61 65 (2030080)
I0928 17:57:30.555184 19368 net.cpp:165] Memory required for data: 714129436
I0928 17:57:30.555189 19368 layer_factory.hpp:77] Creating layer res3b1
I0928 17:57:30.555194 19368 net.cpp:106] Creating Layer res3b1
I0928 17:57:30.555198 19368 net.cpp:454] res3b1 <- res3a_res3a_relu_0_split_1
I0928 17:57:30.555202 19368 net.cpp:454] res3b1 <- res3b1_branch2c
I0928 17:57:30.555208 19368 net.cpp:411] res3b1 -> res3b1
I0928 17:57:30.555230 19368 net.cpp:150] Setting up res3b1
I0928 17:57:30.555235 19368 net.cpp:157] Top shape: 1 512 61 65 (2030080)
I0928 17:57:30.555238 19368 net.cpp:165] Memory required for data: 722249756
I0928 17:57:30.555241 19368 layer_factory.hpp:77] Creating layer res3b1_relu
I0928 17:57:30.555246 19368 net.cpp:106] Creating Layer res3b1_relu
I0928 17:57:30.555249 19368 net.cpp:454] res3b1_relu <- res3b1
I0928 17:57:30.555253 19368 net.cpp:397] res3b1_relu -> res3b1 (in-place)
I0928 17:57:30.555258 19368 net.cpp:150] Setting up res3b1_relu
I0928 17:57:30.555263 19368 net.cpp:157] Top shape: 1 512 61 65 (2030080)
I0928 17:57:30.555265 19368 net.cpp:165] Memory required for data: 730370076
I0928 17:57:30.555269 19368 layer_factory.hpp:77] Creating layer res3b1_res3b1_relu_0_split
I0928 17:57:30.555272 19368 net.cpp:106] Creating Layer res3b1_res3b1_relu_0_split
I0928 17:57:30.555276 19368 net.cpp:454] res3b1_res3b1_relu_0_split <- res3b1
I0928 17:57:30.555280 19368 net.cpp:411] res3b1_res3b1_relu_0_split -> res3b1_res3b1_relu_0_split_0
I0928 17:57:30.555286 19368 net.cpp:411] res3b1_res3b1_relu_0_split -> res3b1_res3b1_relu_0_split_1
I0928 17:57:30.555310 19368 net.cpp:150] Setting up res3b1_res3b1_relu_0_split
I0928 17:57:30.555315 19368 net.cpp:157] Top shape: 1 512 61 65 (2030080)
I0928 17:57:30.555320 19368 net.cpp:157] Top shape: 1 512 61 65 (2030080)
I0928 17:57:30.555322 19368 net.cpp:165] Memory required for data: 746610716
I0928 17:57:30.555325 19368 layer_factory.hpp:77] Creating layer res3b2_branch2a
I0928 17:57:30.555331 19368 net.cpp:106] Creating Layer res3b2_branch2a
I0928 17:57:30.555335 19368 net.cpp:454] res3b2_branch2a <- res3b1_res3b1_relu_0_split_0
I0928 17:57:30.555339 19368 net.cpp:411] res3b2_branch2a -> res3b2_branch2a
I0928 17:57:30.555487 19368 net.cpp:150] Setting up res3b2_branch2a
I0928 17:57:30.555492 19368 net.cpp:157] Top shape: 1 128 61 65 (507520)
I0928 17:57:30.555495 19368 net.cpp:165] Memory required for data: 748640796
I0928 17:57:30.555500 19368 layer_factory.hpp:77] Creating layer bn3b2_branch2a
I0928 17:57:30.555505 19368 net.cpp:106] Creating Layer bn3b2_branch2a
I0928 17:57:30.555510 19368 net.cpp:454] bn3b2_branch2a <- res3b2_branch2a
I0928 17:57:30.555513 19368 net.cpp:397] bn3b2_branch2a -> res3b2_branch2a (in-place)
I0928 17:57:30.555624 19368 net.cpp:150] Setting up bn3b2_branch2a
I0928 17:57:30.555629 19368 net.cpp:157] Top shape: 1 128 61 65 (507520)
I0928 17:57:30.555631 19368 net.cpp:165] Memory required for data: 750670876
I0928 17:57:30.555639 19368 layer_factory.hpp:77] Creating layer scale3b2_branch2a
I0928 17:57:30.555644 19368 net.cpp:106] Creating Layer scale3b2_branch2a
I0928 17:57:30.555646 19368 net.cpp:454] scale3b2_branch2a <- res3b2_branch2a
I0928 17:57:30.555651 19368 net.cpp:397] scale3b2_branch2a -> res3b2_branch2a (in-place)
I0928 17:57:30.555683 19368 layer_factory.hpp:77] Creating layer scale3b2_branch2a
I0928 17:57:30.555753 19368 net.cpp:150] Setting up scale3b2_branch2a
I0928 17:57:30.555758 19368 net.cpp:157] Top shape: 1 128 61 65 (507520)
I0928 17:57:30.555761 19368 net.cpp:165] Memory required for data: 752700956
I0928 17:57:30.555768 19368 layer_factory.hpp:77] Creating layer res3b2_branch2a_relu
I0928 17:57:30.555771 19368 net.cpp:106] Creating Layer res3b2_branch2a_relu
I0928 17:57:30.555774 19368 net.cpp:454] res3b2_branch2a_relu <- res3b2_branch2a
I0928 17:57:30.555779 19368 net.cpp:397] res3b2_branch2a_relu -> res3b2_branch2a (in-place)
I0928 17:57:30.555783 19368 net.cpp:150] Setting up res3b2_branch2a_relu
I0928 17:57:30.555788 19368 net.cpp:157] Top shape: 1 128 61 65 (507520)
I0928 17:57:30.555790 19368 net.cpp:165] Memory required for data: 754731036
I0928 17:57:30.555794 19368 layer_factory.hpp:77] Creating layer res3b2_branch2b
I0928 17:57:30.555799 19368 net.cpp:106] Creating Layer res3b2_branch2b
I0928 17:57:30.555802 19368 net.cpp:454] res3b2_branch2b <- res3b2_branch2a
I0928 17:57:30.555806 19368 net.cpp:411] res3b2_branch2b -> res3b2_branch2b
I0928 17:57:30.555989 19368 net.cpp:150] Setting up res3b2_branch2b
I0928 17:57:30.555994 19368 net.cpp:157] Top shape: 1 128 61 65 (507520)
I0928 17:57:30.555997 19368 net.cpp:165] Memory required for data: 756761116
I0928 17:57:30.556002 19368 layer_factory.hpp:77] Creating layer bn3b2_branch2b
I0928 17:57:30.556007 19368 net.cpp:106] Creating Layer bn3b2_branch2b
I0928 17:57:30.556010 19368 net.cpp:454] bn3b2_branch2b <- res3b2_branch2b
I0928 17:57:30.556015 19368 net.cpp:397] bn3b2_branch2b -> res3b2_branch2b (in-place)
I0928 17:57:30.556123 19368 net.cpp:150] Setting up bn3b2_branch2b
I0928 17:57:30.556128 19368 net.cpp:157] Top shape: 1 128 61 65 (507520)
I0928 17:57:30.556131 19368 net.cpp:165] Memory required for data: 758791196
I0928 17:57:30.556138 19368 layer_factory.hpp:77] Creating layer scale3b2_branch2b
I0928 17:57:30.556143 19368 net.cpp:106] Creating Layer scale3b2_branch2b
I0928 17:57:30.556146 19368 net.cpp:454] scale3b2_branch2b <- res3b2_branch2b
I0928 17:57:30.556150 19368 net.cpp:397] scale3b2_branch2b -> res3b2_branch2b (in-place)
I0928 17:57:30.556174 19368 layer_factory.hpp:77] Creating layer scale3b2_branch2b
I0928 17:57:30.556243 19368 net.cpp:150] Setting up scale3b2_branch2b
I0928 17:57:30.556248 19368 net.cpp:157] Top shape: 1 128 61 65 (507520)
I0928 17:57:30.556252 19368 net.cpp:165] Memory required for data: 760821276
I0928 17:57:30.556257 19368 layer_factory.hpp:77] Creating layer res3b2_branch2b_relu
I0928 17:57:30.556262 19368 net.cpp:106] Creating Layer res3b2_branch2b_relu
I0928 17:57:30.556264 19368 net.cpp:454] res3b2_branch2b_relu <- res3b2_branch2b
I0928 17:57:30.556268 19368 net.cpp:397] res3b2_branch2b_relu -> res3b2_branch2b (in-place)
I0928 17:57:30.556273 19368 net.cpp:150] Setting up res3b2_branch2b_relu
I0928 17:57:30.581938 19368 net.cpp:157] Top shape: 1 128 61 65 (507520)
I0928 17:57:30.581962 19368 net.cpp:165] Memory required for data: 762851356
I0928 17:57:30.581980 19368 layer_factory.hpp:77] Creating layer res3b2_branch2c
I0928 17:57:30.582008 19368 net.cpp:106] Creating Layer res3b2_branch2c
I0928 17:57:30.582027 19368 net.cpp:454] res3b2_branch2c <- res3b2_branch2b
I0928 17:57:30.582037 19368 net.cpp:411] res3b2_branch2c -> res3b2_branch2c
I0928 17:57:30.582314 19368 net.cpp:150] Setting up res3b2_branch2c
I0928 17:57:30.582321 19368 net.cpp:157] Top shape: 1 512 61 65 (2030080)
I0928 17:57:30.582325 19368 net.cpp:165] Memory required for data: 770971676
I0928 17:57:30.582348 19368 layer_factory.hpp:77] Creating layer bn3b2_branch2c
I0928 17:57:30.582371 19368 net.cpp:106] Creating Layer bn3b2_branch2c
I0928 17:57:30.582376 19368 net.cpp:454] bn3b2_branch2c <- res3b2_branch2c
I0928 17:57:30.582396 19368 net.cpp:397] bn3b2_branch2c -> res3b2_branch2c (in-place)
I0928 17:57:30.582592 19368 net.cpp:150] Setting up bn3b2_branch2c
I0928 17:57:30.582598 19368 net.cpp:157] Top shape: 1 512 61 65 (2030080)
I0928 17:57:30.582648 19368 net.cpp:165] Memory required for data: 779091996
I0928 17:57:30.582659 19368 layer_factory.hpp:77] Creating layer scale3b2_branch2c
I0928 17:57:30.582667 19368 net.cpp:106] Creating Layer scale3b2_branch2c
I0928 17:57:30.582671 19368 net.cpp:454] scale3b2_branch2c <- res3b2_branch2c
I0928 17:57:30.582679 19368 net.cpp:397] scale3b2_branch2c -> res3b2_branch2c (in-place)
I0928 17:57:30.582737 19368 layer_factory.hpp:77] Creating layer scale3b2_branch2c
I0928 17:57:30.582860 19368 net.cpp:150] Setting up scale3b2_branch2c
I0928 17:57:30.582868 19368 net.cpp:157] Top shape: 1 512 61 65 (2030080)
I0928 17:57:30.582872 19368 net.cpp:165] Memory required for data: 787212316
I0928 17:57:30.582893 19368 layer_factory.hpp:77] Creating layer res3b2
I0928 17:57:30.582914 19368 net.cpp:106] Creating Layer res3b2
I0928 17:57:30.582919 19368 net.cpp:454] res3b2 <- res3b1_res3b1_relu_0_split_1
I0928 17:57:30.582926 19368 net.cpp:454] res3b2 <- res3b2_branch2c
I0928 17:57:30.582932 19368 net.cpp:411] res3b2 -> res3b2
I0928 17:57:30.582955 19368 net.cpp:150] Setting up res3b2
I0928 17:57:30.582962 19368 net.cpp:157] Top shape: 1 512 61 65 (2030080)
I0928 17:57:30.582979 19368 net.cpp:165] Memory required for data: 795332636
I0928 17:57:30.582984 19368 layer_factory.hpp:77] Creating layer res3b2_relu
I0928 17:57:30.582991 19368 net.cpp:106] Creating Layer res3b2_relu
I0928 17:57:30.582996 19368 net.cpp:454] res3b2_relu <- res3b2
I0928 17:57:30.583003 19368 net.cpp:397] res3b2_relu -> res3b2 (in-place)
I0928 17:57:30.583009 19368 net.cpp:150] Setting up res3b2_relu
I0928 17:57:30.583015 19368 net.cpp:157] Top shape: 1 512 61 65 (2030080)
I0928 17:57:30.583020 19368 net.cpp:165] Memory required for data: 803452956
I0928 17:57:30.583024 19368 layer_factory.hpp:77] Creating layer res3b2_res3b2_relu_0_split
I0928 17:57:30.583030 19368 net.cpp:106] Creating Layer res3b2_res3b2_relu_0_split
I0928 17:57:30.583036 19368 net.cpp:454] res3b2_res3b2_relu_0_split <- res3b2
I0928 17:57:30.583042 19368 net.cpp:411] res3b2_res3b2_relu_0_split -> res3b2_res3b2_relu_0_split_0
I0928 17:57:30.583050 19368 net.cpp:411] res3b2_res3b2_relu_0_split -> res3b2_res3b2_relu_0_split_1
I0928 17:57:30.583083 19368 net.cpp:150] Setting up res3b2_res3b2_relu_0_split
I0928 17:57:30.583091 19368 net.cpp:157] Top shape: 1 512 61 65 (2030080)
I0928 17:57:30.583096 19368 net.cpp:157] Top shape: 1 512 61 65 (2030080)
I0928 17:57:30.583101 19368 net.cpp:165] Memory required for data: 819693596
I0928 17:57:30.583106 19368 layer_factory.hpp:77] Creating layer res3b3_branch2a
I0928 17:57:30.583115 19368 net.cpp:106] Creating Layer res3b3_branch2a
I0928 17:57:30.583120 19368 net.cpp:454] res3b3_branch2a <- res3b2_res3b2_relu_0_split_0
I0928 17:57:30.583127 19368 net.cpp:411] res3b3_branch2a -> res3b3_branch2a
I0928 17:57:30.583336 19368 net.cpp:150] Setting up res3b3_branch2a
I0928 17:57:30.583344 19368 net.cpp:157] Top shape: 1 128 61 65 (507520)
I0928 17:57:30.583348 19368 net.cpp:165] Memory required for data: 821723676
I0928 17:57:30.583355 19368 layer_factory.hpp:77] Creating layer bn3b3_branch2a
I0928 17:57:30.583364 19368 net.cpp:106] Creating Layer bn3b3_branch2a
I0928 17:57:30.583369 19368 net.cpp:454] bn3b3_branch2a <- res3b3_branch2a
I0928 17:57:30.583375 19368 net.cpp:397] bn3b3_branch2a -> res3b3_branch2a (in-place)
I0928 17:57:30.583526 19368 net.cpp:150] Setting up bn3b3_branch2a
I0928 17:57:30.583534 19368 net.cpp:157] Top shape: 1 128 61 65 (507520)
I0928 17:57:30.583539 19368 net.cpp:165] Memory required for data: 823753756
I0928 17:57:30.583571 19368 layer_factory.hpp:77] Creating layer scale3b3_branch2a
I0928 17:57:30.583580 19368 net.cpp:106] Creating Layer scale3b3_branch2a
I0928 17:57:30.583585 19368 net.cpp:454] scale3b3_branch2a <- res3b3_branch2a
I0928 17:57:30.583593 19368 net.cpp:397] scale3b3_branch2a -> res3b3_branch2a (in-place)
I0928 17:57:30.583627 19368 layer_factory.hpp:77] Creating layer scale3b3_branch2a
I0928 17:57:30.583726 19368 net.cpp:150] Setting up scale3b3_branch2a
I0928 17:57:30.583744 19368 net.cpp:157] Top shape: 1 128 61 65 (507520)
I0928 17:57:30.583750 19368 net.cpp:165] Memory required for data: 825783836
I0928 17:57:30.583760 19368 layer_factory.hpp:77] Creating layer res3b3_branch2a_relu
I0928 17:57:30.583770 19368 net.cpp:106] Creating Layer res3b3_branch2a_relu
I0928 17:57:30.583775 19368 net.cpp:454] res3b3_branch2a_relu <- res3b3_branch2a
I0928 17:57:30.583782 19368 net.cpp:397] res3b3_branch2a_relu -> res3b3_branch2a (in-place)
I0928 17:57:30.583789 19368 net.cpp:150] Setting up res3b3_branch2a_relu
I0928 17:57:30.583794 19368 net.cpp:157] Top shape: 1 128 61 65 (507520)
I0928 17:57:30.583798 19368 net.cpp:165] Memory required for data: 827813916
I0928 17:57:30.583803 19368 layer_factory.hpp:77] Creating layer res3b3_branch2b
I0928 17:57:30.583811 19368 net.cpp:106] Creating Layer res3b3_branch2b
I0928 17:57:30.583815 19368 net.cpp:454] res3b3_branch2b <- res3b3_branch2a
I0928 17:57:30.583822 19368 net.cpp:411] res3b3_branch2b -> res3b3_branch2b
I0928 17:57:30.584904 19368 net.cpp:150] Setting up res3b3_branch2b
I0928 17:57:30.584929 19368 net.cpp:157] Top shape: 1 128 61 65 (507520)
I0928 17:57:30.584933 19368 net.cpp:165] Memory required for data: 829843996
I0928 17:57:30.584939 19368 layer_factory.hpp:77] Creating layer bn3b3_branch2b
I0928 17:57:30.584957 19368 net.cpp:106] Creating Layer bn3b3_branch2b
I0928 17:57:30.584961 19368 net.cpp:454] bn3b3_branch2b <- res3b3_branch2b
I0928 17:57:30.584965 19368 net.cpp:397] bn3b3_branch2b -> res3b3_branch2b (in-place)
I0928 17:57:30.585106 19368 net.cpp:150] Setting up bn3b3_branch2b
I0928 17:57:30.585111 19368 net.cpp:157] Top shape: 1 128 61 65 (507520)
I0928 17:57:30.585129 19368 net.cpp:165] Memory required for data: 831874076
I0928 17:57:30.585135 19368 layer_factory.hpp:77] Creating layer scale3b3_branch2b
I0928 17:57:30.585141 19368 net.cpp:106] Creating Layer scale3b3_branch2b
I0928 17:57:30.585144 19368 net.cpp:454] scale3b3_branch2b <- res3b3_branch2b
I0928 17:57:30.585161 19368 net.cpp:397] scale3b3_branch2b -> res3b3_branch2b (in-place)
I0928 17:57:30.585214 19368 layer_factory.hpp:77] Creating layer scale3b3_branch2b
I0928 17:57:30.585342 19368 net.cpp:150] Setting up scale3b3_branch2b
I0928 17:57:30.585347 19368 net.cpp:157] Top shape: 1 128 61 65 (507520)
I0928 17:57:30.585366 19368 net.cpp:165] Memory required for data: 833904156
I0928 17:57:30.585371 19368 layer_factory.hpp:77] Creating layer res3b3_branch2b_relu
I0928 17:57:30.585376 19368 net.cpp:106] Creating Layer res3b3_branch2b_relu
I0928 17:57:30.585379 19368 net.cpp:454] res3b3_branch2b_relu <- res3b3_branch2b
I0928 17:57:30.585383 19368 net.cpp:397] res3b3_branch2b_relu -> res3b3_branch2b (in-place)
I0928 17:57:30.585404 19368 net.cpp:150] Setting up res3b3_branch2b_relu
I0928 17:57:30.585408 19368 net.cpp:157] Top shape: 1 128 61 65 (507520)
I0928 17:57:30.585412 19368 net.cpp:165] Memory required for data: 835934236
I0928 17:57:30.585413 19368 layer_factory.hpp:77] Creating layer res3b3_branch2c
I0928 17:57:30.585418 19368 net.cpp:106] Creating Layer res3b3_branch2c
I0928 17:57:30.585422 19368 net.cpp:454] res3b3_branch2c <- res3b3_branch2b
I0928 17:57:30.585427 19368 net.cpp:411] res3b3_branch2c -> res3b3_branch2c
I0928 17:57:30.585575 19368 net.cpp:150] Setting up res3b3_branch2c
I0928 17:57:30.585582 19368 net.cpp:157] Top shape: 1 512 61 65 (2030080)
I0928 17:57:30.585583 19368 net.cpp:165] Memory required for data: 844054556
I0928 17:57:30.585589 19368 layer_factory.hpp:77] Creating layer bn3b3_branch2c
I0928 17:57:30.585593 19368 net.cpp:106] Creating Layer bn3b3_branch2c
I0928 17:57:30.585597 19368 net.cpp:454] bn3b3_branch2c <- res3b3_branch2c
I0928 17:57:30.585602 19368 net.cpp:397] bn3b3_branch2c -> res3b3_branch2c (in-place)
I0928 17:57:30.585711 19368 net.cpp:150] Setting up bn3b3_branch2c
I0928 17:57:30.585714 19368 net.cpp:157] Top shape: 1 512 61 65 (2030080)
I0928 17:57:30.585717 19368 net.cpp:165] Memory required for data: 852174876
I0928 17:57:30.585724 19368 layer_factory.hpp:77] Creating layer scale3b3_branch2c
I0928 17:57:30.585729 19368 net.cpp:106] Creating Layer scale3b3_branch2c
I0928 17:57:30.585741 19368 net.cpp:454] scale3b3_branch2c <- res3b3_branch2c
I0928 17:57:30.585747 19368 net.cpp:397] scale3b3_branch2c -> res3b3_branch2c (in-place)
I0928 17:57:30.585769 19368 layer_factory.hpp:77] Creating layer scale3b3_branch2c
I0928 17:57:30.585841 19368 net.cpp:150] Setting up scale3b3_branch2c
I0928 17:57:30.585845 19368 net.cpp:157] Top shape: 1 512 61 65 (2030080)
I0928 17:57:30.585849 19368 net.cpp:165] Memory required for data: 860295196
I0928 17:57:30.585855 19368 layer_factory.hpp:77] Creating layer res3b3
I0928 17:57:30.585860 19368 net.cpp:106] Creating Layer res3b3
I0928 17:57:30.585862 19368 net.cpp:454] res3b3 <- res3b2_res3b2_relu_0_split_1
I0928 17:57:30.585866 19368 net.cpp:454] res3b3 <- res3b3_branch2c
I0928 17:57:30.585870 19368 net.cpp:411] res3b3 -> res3b3
I0928 17:57:30.585886 19368 net.cpp:150] Setting up res3b3
I0928 17:57:30.585891 19368 net.cpp:157] Top shape: 1 512 61 65 (2030080)
I0928 17:57:30.585893 19368 net.cpp:165] Memory required for data: 868415516
I0928 17:57:30.585896 19368 layer_factory.hpp:77] Creating layer res3b3_relu
I0928 17:57:30.585901 19368 net.cpp:106] Creating Layer res3b3_relu
I0928 17:57:30.585903 19368 net.cpp:454] res3b3_relu <- res3b3
I0928 17:57:30.585907 19368 net.cpp:397] res3b3_relu -> res3b3 (in-place)
I0928 17:57:30.585911 19368 net.cpp:150] Setting up res3b3_relu
I0928 17:57:30.585916 19368 net.cpp:157] Top shape: 1 512 61 65 (2030080)
I0928 17:57:30.585918 19368 net.cpp:165] Memory required for data: 876535836
I0928 17:57:30.585922 19368 layer_factory.hpp:77] Creating layer res3b3_res3b3_relu_0_split
I0928 17:57:30.585925 19368 net.cpp:106] Creating Layer res3b3_res3b3_relu_0_split
I0928 17:57:30.585928 19368 net.cpp:454] res3b3_res3b3_relu_0_split <- res3b3
I0928 17:57:30.585933 19368 net.cpp:411] res3b3_res3b3_relu_0_split -> res3b3_res3b3_relu_0_split_0
I0928 17:57:30.585938 19368 net.cpp:411] res3b3_res3b3_relu_0_split -> res3b3_res3b3_relu_0_split_1
I0928 17:57:30.585961 19368 net.cpp:150] Setting up res3b3_res3b3_relu_0_split
I0928 17:57:30.585966 19368 net.cpp:157] Top shape: 1 512 61 65 (2030080)
I0928 17:57:30.585969 19368 net.cpp:157] Top shape: 1 512 61 65 (2030080)
I0928 17:57:30.585973 19368 net.cpp:165] Memory required for data: 892776476
I0928 17:57:30.585975 19368 layer_factory.hpp:77] Creating layer res4a_branch1
I0928 17:57:30.585981 19368 net.cpp:106] Creating Layer res4a_branch1
I0928 17:57:30.585984 19368 net.cpp:454] res4a_branch1 <- res3b3_res3b3_relu_0_split_0
I0928 17:57:30.585988 19368 net.cpp:411] res4a_branch1 -> res4a_branch1
I0928 17:57:30.586961 19368 net.cpp:150] Setting up res4a_branch1
I0928 17:57:30.586971 19368 net.cpp:157] Top shape: 1 1024 61 65 (4060160)
I0928 17:57:30.586973 19368 net.cpp:165] Memory required for data: 909017116
I0928 17:57:30.586978 19368 layer_factory.hpp:77] Creating layer bn4a_branch1
I0928 17:57:30.586984 19368 net.cpp:106] Creating Layer bn4a_branch1
I0928 17:57:30.586987 19368 net.cpp:454] bn4a_branch1 <- res4a_branch1
I0928 17:57:30.586993 19368 net.cpp:397] bn4a_branch1 -> res4a_branch1 (in-place)
I0928 17:57:30.587105 19368 net.cpp:150] Setting up bn4a_branch1
I0928 17:57:30.587110 19368 net.cpp:157] Top shape: 1 1024 61 65 (4060160)
I0928 17:57:30.587112 19368 net.cpp:165] Memory required for data: 925257756
I0928 17:57:30.587118 19368 layer_factory.hpp:77] Creating layer scale4a_branch1
I0928 17:57:30.587123 19368 net.cpp:106] Creating Layer scale4a_branch1
I0928 17:57:30.587127 19368 net.cpp:454] scale4a_branch1 <- res4a_branch1
I0928 17:57:30.587131 19368 net.cpp:397] scale4a_branch1 -> res4a_branch1 (in-place)
I0928 17:57:30.587154 19368 layer_factory.hpp:77] Creating layer scale4a_branch1
I0928 17:57:30.587226 19368 net.cpp:150] Setting up scale4a_branch1
I0928 17:57:30.587231 19368 net.cpp:157] Top shape: 1 1024 61 65 (4060160)
I0928 17:57:30.587234 19368 net.cpp:165] Memory required for data: 941498396
I0928 17:57:30.587240 19368 layer_factory.hpp:77] Creating layer res4a_branch2a
I0928 17:57:30.587246 19368 net.cpp:106] Creating Layer res4a_branch2a
I0928 17:57:30.587258 19368 net.cpp:454] res4a_branch2a <- res3b3_res3b3_relu_0_split_1
I0928 17:57:30.587263 19368 net.cpp:411] res4a_branch2a -> res4a_branch2a
I0928 17:57:30.587435 19368 net.cpp:150] Setting up res4a_branch2a
I0928 17:57:30.587440 19368 net.cpp:157] Top shape: 1 256 61 65 (1015040)
I0928 17:57:30.587443 19368 net.cpp:165] Memory required for data: 945558556
I0928 17:57:30.587448 19368 layer_factory.hpp:77] Creating layer bn4a_branch2a
I0928 17:57:30.587453 19368 net.cpp:106] Creating Layer bn4a_branch2a
I0928 17:57:30.587456 19368 net.cpp:454] bn4a_branch2a <- res4a_branch2a
I0928 17:57:30.587461 19368 net.cpp:397] bn4a_branch2a -> res4a_branch2a (in-place)
I0928 17:57:30.587569 19368 net.cpp:150] Setting up bn4a_branch2a
I0928 17:57:30.587574 19368 net.cpp:157] Top shape: 1 256 61 65 (1015040)
I0928 17:57:30.587576 19368 net.cpp:165] Memory required for data: 949618716
I0928 17:57:30.587582 19368 layer_factory.hpp:77] Creating layer scale4a_branch2a
I0928 17:57:30.587587 19368 net.cpp:106] Creating Layer scale4a_branch2a
I0928 17:57:30.587591 19368 net.cpp:454] scale4a_branch2a <- res4a_branch2a
I0928 17:57:30.587595 19368 net.cpp:397] scale4a_branch2a -> res4a_branch2a (in-place)
I0928 17:57:30.587620 19368 layer_factory.hpp:77] Creating layer scale4a_branch2a
I0928 17:57:30.587689 19368 net.cpp:150] Setting up scale4a_branch2a
I0928 17:57:30.587694 19368 net.cpp:157] Top shape: 1 256 61 65 (1015040)
I0928 17:57:30.587697 19368 net.cpp:165] Memory required for data: 953678876
I0928 17:57:30.587702 19368 layer_factory.hpp:77] Creating layer res4a_branch2a_relu
I0928 17:57:30.587707 19368 net.cpp:106] Creating Layer res4a_branch2a_relu
I0928 17:57:30.587710 19368 net.cpp:454] res4a_branch2a_relu <- res4a_branch2a
I0928 17:57:30.587714 19368 net.cpp:397] res4a_branch2a_relu -> res4a_branch2a (in-place)
I0928 17:57:30.587718 19368 net.cpp:150] Setting up res4a_branch2a_relu
I0928 17:57:30.587723 19368 net.cpp:157] Top shape: 1 256 61 65 (1015040)
I0928 17:57:30.587725 19368 net.cpp:165] Memory required for data: 957739036
I0928 17:57:30.587728 19368 layer_factory.hpp:77] Creating layer res4a_branch2b
I0928 17:57:30.587733 19368 net.cpp:106] Creating Layer res4a_branch2b
I0928 17:57:30.587736 19368 net.cpp:454] res4a_branch2b <- res4a_branch2a
I0928 17:57:30.587741 19368 net.cpp:411] res4a_branch2b -> res4a_branch2b
I0928 17:57:30.588773 19368 net.cpp:150] Setting up res4a_branch2b
I0928 17:57:30.588783 19368 net.cpp:157] Top shape: 1 256 61 65 (1015040)
I0928 17:57:30.588785 19368 net.cpp:165] Memory required for data: 961799196
I0928 17:57:30.588791 19368 layer_factory.hpp:77] Creating layer bn4a_branch2b
I0928 17:57:30.588798 19368 net.cpp:106] Creating Layer bn4a_branch2b
I0928 17:57:30.588801 19368 net.cpp:454] bn4a_branch2b <- res4a_branch2b
I0928 17:57:30.588805 19368 net.cpp:397] bn4a_branch2b -> res4a_branch2b (in-place)
I0928 17:57:30.612659 19368 net.cpp:150] Setting up bn4a_branch2b
I0928 17:57:30.612673 19368 net.cpp:157] Top shape: 1 256 61 65 (1015040)
I0928 17:57:30.612677 19368 net.cpp:165] Memory required for data: 965859356
I0928 17:57:30.612689 19368 layer_factory.hpp:77] Creating layer scale4a_branch2b
I0928 17:57:30.612699 19368 net.cpp:106] Creating Layer scale4a_branch2b
I0928 17:57:30.612705 19368 net.cpp:454] scale4a_branch2b <- res4a_branch2b
I0928 17:57:30.612715 19368 net.cpp:397] scale4a_branch2b -> res4a_branch2b (in-place)
I0928 17:57:30.612757 19368 layer_factory.hpp:77] Creating layer scale4a_branch2b
I0928 17:57:30.612879 19368 net.cpp:150] Setting up scale4a_branch2b
I0928 17:57:30.612887 19368 net.cpp:157] Top shape: 1 256 61 65 (1015040)
I0928 17:57:30.612892 19368 net.cpp:165] Memory required for data: 969919516
I0928 17:57:30.612902 19368 layer_factory.hpp:77] Creating layer res4a_branch2b_relu
I0928 17:57:30.612910 19368 net.cpp:106] Creating Layer res4a_branch2b_relu
I0928 17:57:30.612916 19368 net.cpp:454] res4a_branch2b_relu <- res4a_branch2b
I0928 17:57:30.612923 19368 net.cpp:397] res4a_branch2b_relu -> res4a_branch2b (in-place)
I0928 17:57:30.612947 19368 net.cpp:150] Setting up res4a_branch2b_relu
I0928 17:57:30.612954 19368 net.cpp:157] Top shape: 1 256 61 65 (1015040)
I0928 17:57:30.612959 19368 net.cpp:165] Memory required for data: 973979676
I0928 17:57:30.612963 19368 layer_factory.hpp:77] Creating layer res4a_branch2c
I0928 17:57:30.612973 19368 net.cpp:106] Creating Layer res4a_branch2c
I0928 17:57:30.612979 19368 net.cpp:454] res4a_branch2c <- res4a_branch2b
I0928 17:57:30.612988 19368 net.cpp:411] res4a_branch2c -> res4a_branch2c
I0928 17:57:30.614537 19368 net.cpp:150] Setting up res4a_branch2c
I0928 17:57:30.614550 19368 net.cpp:157] Top shape: 1 1024 61 65 (4060160)
I0928 17:57:30.614557 19368 net.cpp:165] Memory required for data: 990220316
I0928 17:57:30.614567 19368 layer_factory.hpp:77] Creating layer bn4a_branch2c
I0928 17:57:30.614594 19368 net.cpp:106] Creating Layer bn4a_branch2c
I0928 17:57:30.614600 19368 net.cpp:454] bn4a_branch2c <- res4a_branch2c
I0928 17:57:30.614610 19368 net.cpp:397] bn4a_branch2c -> res4a_branch2c (in-place)
I0928 17:57:30.614810 19368 net.cpp:150] Setting up bn4a_branch2c
I0928 17:57:30.614822 19368 net.cpp:157] Top shape: 1 1024 61 65 (4060160)
I0928 17:57:30.614828 19368 net.cpp:165] Memory required for data: 1006460956
I0928 17:57:30.614841 19368 layer_factory.hpp:77] Creating layer scale4a_branch2c
I0928 17:57:30.614851 19368 net.cpp:106] Creating Layer scale4a_branch2c
I0928 17:57:30.614857 19368 net.cpp:454] scale4a_branch2c <- res4a_branch2c
I0928 17:57:30.614866 19368 net.cpp:397] scale4a_branch2c -> res4a_branch2c (in-place)
I0928 17:57:30.614909 19368 layer_factory.hpp:77] Creating layer scale4a_branch2c
I0928 17:57:30.615023 19368 net.cpp:150] Setting up scale4a_branch2c
I0928 17:57:30.615031 19368 net.cpp:157] Top shape: 1 1024 61 65 (4060160)
I0928 17:57:30.615034 19368 net.cpp:165] Memory required for data: 1022701596
I0928 17:57:30.615042 19368 layer_factory.hpp:77] Creating layer res4a
I0928 17:57:30.615048 19368 net.cpp:106] Creating Layer res4a
I0928 17:57:30.615052 19368 net.cpp:454] res4a <- res4a_branch1
I0928 17:57:30.615057 19368 net.cpp:454] res4a <- res4a_branch2c
I0928 17:57:30.615062 19368 net.cpp:411] res4a -> res4a
I0928 17:57:30.615082 19368 net.cpp:150] Setting up res4a
I0928 17:57:30.615087 19368 net.cpp:157] Top shape: 1 1024 61 65 (4060160)
I0928 17:57:30.615090 19368 net.cpp:165] Memory required for data: 1038942236
I0928 17:57:30.615094 19368 layer_factory.hpp:77] Creating layer res4a_relu
I0928 17:57:30.615099 19368 net.cpp:106] Creating Layer res4a_relu
I0928 17:57:30.615103 19368 net.cpp:454] res4a_relu <- res4a
I0928 17:57:30.615108 19368 net.cpp:397] res4a_relu -> res4a (in-place)
I0928 17:57:30.615114 19368 net.cpp:150] Setting up res4a_relu
I0928 17:57:30.615118 19368 net.cpp:157] Top shape: 1 1024 61 65 (4060160)
I0928 17:57:30.615121 19368 net.cpp:165] Memory required for data: 1055182876
I0928 17:57:30.615124 19368 layer_factory.hpp:77] Creating layer res4a_res4a_relu_0_split
I0928 17:57:30.615130 19368 net.cpp:106] Creating Layer res4a_res4a_relu_0_split
I0928 17:57:30.615134 19368 net.cpp:454] res4a_res4a_relu_0_split <- res4a
I0928 17:57:30.615139 19368 net.cpp:411] res4a_res4a_relu_0_split -> res4a_res4a_relu_0_split_0
I0928 17:57:30.615145 19368 net.cpp:411] res4a_res4a_relu_0_split -> res4a_res4a_relu_0_split_1
I0928 17:57:30.615173 19368 net.cpp:150] Setting up res4a_res4a_relu_0_split
I0928 17:57:30.615178 19368 net.cpp:157] Top shape: 1 1024 61 65 (4060160)
I0928 17:57:30.615182 19368 net.cpp:157] Top shape: 1 1024 61 65 (4060160)
I0928 17:57:30.615185 19368 net.cpp:165] Memory required for data: 1087664156
I0928 17:57:30.615190 19368 layer_factory.hpp:77] Creating layer res4b1_branch2a
I0928 17:57:30.615196 19368 net.cpp:106] Creating Layer res4b1_branch2a
I0928 17:57:30.615200 19368 net.cpp:454] res4b1_branch2a <- res4a_res4a_relu_0_split_0
I0928 17:57:30.615206 19368 net.cpp:411] res4b1_branch2a -> res4b1_branch2a
I0928 17:57:30.615473 19368 net.cpp:150] Setting up res4b1_branch2a
I0928 17:57:30.615478 19368 net.cpp:157] Top shape: 1 256 61 65 (1015040)
I0928 17:57:30.615494 19368 net.cpp:165] Memory required for data: 1091724316
I0928 17:57:30.615499 19368 layer_factory.hpp:77] Creating layer bn4b1_branch2a
I0928 17:57:30.615506 19368 net.cpp:106] Creating Layer bn4b1_branch2a
I0928 17:57:30.615510 19368 net.cpp:454] bn4b1_branch2a <- res4b1_branch2a
I0928 17:57:30.615516 19368 net.cpp:397] bn4b1_branch2a -> res4b1_branch2a (in-place)
I0928 17:57:30.615646 19368 net.cpp:150] Setting up bn4b1_branch2a
I0928 17:57:30.615651 19368 net.cpp:157] Top shape: 1 256 61 65 (1015040)
I0928 17:57:30.615655 19368 net.cpp:165] Memory required for data: 1095784476
I0928 17:57:30.615662 19368 layer_factory.hpp:77] Creating layer scale4b1_branch2a
I0928 17:57:30.615669 19368 net.cpp:106] Creating Layer scale4b1_branch2a
I0928 17:57:30.615672 19368 net.cpp:454] scale4b1_branch2a <- res4b1_branch2a
I0928 17:57:30.615677 19368 net.cpp:397] scale4b1_branch2a -> res4b1_branch2a (in-place)
I0928 17:57:30.615706 19368 layer_factory.hpp:77] Creating layer scale4b1_branch2a
I0928 17:57:30.615792 19368 net.cpp:150] Setting up scale4b1_branch2a
I0928 17:57:30.615797 19368 net.cpp:157] Top shape: 1 256 61 65 (1015040)
I0928 17:57:30.615801 19368 net.cpp:165] Memory required for data: 1099844636
I0928 17:57:30.615808 19368 layer_factory.hpp:77] Creating layer res4b1_branch2a_relu
I0928 17:57:30.615813 19368 net.cpp:106] Creating Layer res4b1_branch2a_relu
I0928 17:57:30.615818 19368 net.cpp:454] res4b1_branch2a_relu <- res4b1_branch2a
I0928 17:57:30.615821 19368 net.cpp:397] res4b1_branch2a_relu -> res4b1_branch2a (in-place)
I0928 17:57:30.615826 19368 net.cpp:150] Setting up res4b1_branch2a_relu
I0928 17:57:30.615831 19368 net.cpp:157] Top shape: 1 256 61 65 (1015040)
I0928 17:57:30.615834 19368 net.cpp:165] Memory required for data: 1103904796
I0928 17:57:30.615839 19368 layer_factory.hpp:77] Creating layer res4b1_branch2b
I0928 17:57:30.615844 19368 net.cpp:106] Creating Layer res4b1_branch2b
I0928 17:57:30.615849 19368 net.cpp:454] res4b1_branch2b <- res4b1_branch2a
I0928 17:57:30.615854 19368 net.cpp:411] res4b1_branch2b -> res4b1_branch2b
I0928 17:57:30.617179 19368 net.cpp:150] Setting up res4b1_branch2b
I0928 17:57:30.617192 19368 net.cpp:157] Top shape: 1 256 61 65 (1015040)
I0928 17:57:30.617195 19368 net.cpp:165] Memory required for data: 1107964956
I0928 17:57:30.617203 19368 layer_factory.hpp:77] Creating layer bn4b1_branch2b
I0928 17:57:30.617211 19368 net.cpp:106] Creating Layer bn4b1_branch2b
I0928 17:57:30.617215 19368 net.cpp:454] bn4b1_branch2b <- res4b1_branch2b
I0928 17:57:30.617223 19368 net.cpp:397] bn4b1_branch2b -> res4b1_branch2b (in-place)
I0928 17:57:30.617374 19368 net.cpp:150] Setting up bn4b1_branch2b
I0928 17:57:30.617380 19368 net.cpp:157] Top shape: 1 256 61 65 (1015040)
I0928 17:57:30.617384 19368 net.cpp:165] Memory required for data: 1112025116
I0928 17:57:30.617393 19368 layer_factory.hpp:77] Creating layer scale4b1_branch2b
I0928 17:57:30.617400 19368 net.cpp:106] Creating Layer scale4b1_branch2b
I0928 17:57:30.617404 19368 net.cpp:454] scale4b1_branch2b <- res4b1_branch2b
I0928 17:57:30.617410 19368 net.cpp:397] scale4b1_branch2b -> res4b1_branch2b (in-place)
I0928 17:57:30.617441 19368 layer_factory.hpp:77] Creating layer scale4b1_branch2b
I0928 17:57:30.617545 19368 net.cpp:150] Setting up scale4b1_branch2b
I0928 17:57:30.617552 19368 net.cpp:157] Top shape: 1 256 61 65 (1015040)
I0928 17:57:30.617555 19368 net.cpp:165] Memory required for data: 1116085276
I0928 17:57:30.617563 19368 layer_factory.hpp:77] Creating layer res4b1_branch2b_relu
I0928 17:57:30.617569 19368 net.cpp:106] Creating Layer res4b1_branch2b_relu
I0928 17:57:30.617573 19368 net.cpp:454] res4b1_branch2b_relu <- res4b1_branch2b
I0928 17:57:30.617579 19368 net.cpp:397] res4b1_branch2b_relu -> res4b1_branch2b (in-place)
I0928 17:57:30.617584 19368 net.cpp:150] Setting up res4b1_branch2b_relu
I0928 17:57:30.617590 19368 net.cpp:157] Top shape: 1 256 61 65 (1015040)
I0928 17:57:30.617594 19368 net.cpp:165] Memory required for data: 1120145436
I0928 17:57:30.617597 19368 layer_factory.hpp:77] Creating layer res4b1_branch2c
I0928 17:57:30.617616 19368 net.cpp:106] Creating Layer res4b1_branch2c
I0928 17:57:30.617621 19368 net.cpp:454] res4b1_branch2c <- res4b1_branch2b
I0928 17:57:30.617628 19368 net.cpp:411] res4b1_branch2c -> res4b1_branch2c
I0928 17:57:30.618734 19368 net.cpp:150] Setting up res4b1_branch2c
I0928 17:57:30.618746 19368 net.cpp:157] Top shape: 1 1024 61 65 (4060160)
I0928 17:57:30.618752 19368 net.cpp:165] Memory required for data: 1136386076
I0928 17:57:30.618759 19368 layer_factory.hpp:77] Creating layer bn4b1_branch2c
I0928 17:57:30.618767 19368 net.cpp:106] Creating Layer bn4b1_branch2c
I0928 17:57:30.618772 19368 net.cpp:454] bn4b1_branch2c <- res4b1_branch2c
I0928 17:57:30.618777 19368 net.cpp:397] bn4b1_branch2c -> res4b1_branch2c (in-place)
I0928 17:57:30.618929 19368 net.cpp:150] Setting up bn4b1_branch2c
I0928 17:57:30.618935 19368 net.cpp:157] Top shape: 1 1024 61 65 (4060160)
I0928 17:57:30.618939 19368 net.cpp:165] Memory required for data: 1152626716
I0928 17:57:30.618948 19368 layer_factory.hpp:77] Creating layer scale4b1_branch2c
I0928 17:57:30.618955 19368 net.cpp:106] Creating Layer scale4b1_branch2c
I0928 17:57:30.618959 19368 net.cpp:454] scale4b1_branch2c <- res4b1_branch2c
I0928 17:57:30.618965 19368 net.cpp:397] scale4b1_branch2c -> res4b1_branch2c (in-place)
I0928 17:57:30.618996 19368 layer_factory.hpp:77] Creating layer scale4b1_branch2c
I0928 17:57:30.619093 19368 net.cpp:150] Setting up scale4b1_branch2c
I0928 17:57:30.619099 19368 net.cpp:157] Top shape: 1 1024 61 65 (4060160)
I0928 17:57:30.619103 19368 net.cpp:165] Memory required for data: 1168867356
I0928 17:57:30.619112 19368 layer_factory.hpp:77] Creating layer res4b1
I0928 17:57:30.619117 19368 net.cpp:106] Creating Layer res4b1
I0928 17:57:30.619122 19368 net.cpp:454] res4b1 <- res4a_res4a_relu_0_split_1
I0928 17:57:30.619127 19368 net.cpp:454] res4b1 <- res4b1_branch2c
I0928 17:57:30.619133 19368 net.cpp:411] res4b1 -> res4b1
I0928 17:57:30.619153 19368 net.cpp:150] Setting up res4b1
I0928 17:57:30.619159 19368 net.cpp:157] Top shape: 1 1024 61 65 (4060160)
I0928 17:57:30.619163 19368 net.cpp:165] Memory required for data: 1185107996
I0928 17:57:30.619168 19368 layer_factory.hpp:77] Creating layer res4b1_relu
I0928 17:57:30.619172 19368 net.cpp:106] Creating Layer res4b1_relu
I0928 17:57:30.619176 19368 net.cpp:454] res4b1_relu <- res4b1
I0928 17:57:30.619181 19368 net.cpp:397] res4b1_relu -> res4b1 (in-place)
I0928 17:57:30.619187 19368 net.cpp:150] Setting up res4b1_relu
I0928 17:57:30.619192 19368 net.cpp:157] Top shape: 1 1024 61 65 (4060160)
I0928 17:57:30.619196 19368 net.cpp:165] Memory required for data: 1201348636
I0928 17:57:30.619199 19368 layer_factory.hpp:77] Creating layer res4b1_res4b1_relu_0_split
I0928 17:57:30.619205 19368 net.cpp:106] Creating Layer res4b1_res4b1_relu_0_split
I0928 17:57:30.619210 19368 net.cpp:454] res4b1_res4b1_relu_0_split <- res4b1
I0928 17:57:30.619215 19368 net.cpp:411] res4b1_res4b1_relu_0_split -> res4b1_res4b1_relu_0_split_0
I0928 17:57:30.619222 19368 net.cpp:411] res4b1_res4b1_relu_0_split -> res4b1_res4b1_relu_0_split_1
I0928 17:57:30.619253 19368 net.cpp:150] Setting up res4b1_res4b1_relu_0_split
I0928 17:57:30.619259 19368 net.cpp:157] Top shape: 1 1024 61 65 (4060160)
I0928 17:57:30.619264 19368 net.cpp:157] Top shape: 1 1024 61 65 (4060160)
I0928 17:57:30.619267 19368 net.cpp:165] Memory required for data: 1233829916
I0928 17:57:30.619271 19368 layer_factory.hpp:77] Creating layer res4b2_branch2a
I0928 17:57:30.619279 19368 net.cpp:106] Creating Layer res4b2_branch2a
I0928 17:57:30.619283 19368 net.cpp:454] res4b2_branch2a <- res4b1_res4b1_relu_0_split_0
I0928 17:57:30.619290 19368 net.cpp:411] res4b2_branch2a -> res4b2_branch2a
I0928 17:57:30.619580 19368 net.cpp:150] Setting up res4b2_branch2a
I0928 17:57:30.619585 19368 net.cpp:157] Top shape: 1 256 61 65 (1015040)
I0928 17:57:30.619590 19368 net.cpp:165] Memory required for data: 1237890076
I0928 17:57:30.619596 19368 layer_factory.hpp:77] Creating layer bn4b2_branch2a
I0928 17:57:30.619611 19368 net.cpp:106] Creating Layer bn4b2_branch2a
I0928 17:57:30.619616 19368 net.cpp:454] bn4b2_branch2a <- res4b2_branch2a
I0928 17:57:30.619622 19368 net.cpp:397] bn4b2_branch2a -> res4b2_branch2a (in-place)
I0928 17:57:30.619767 19368 net.cpp:150] Setting up bn4b2_branch2a
I0928 17:57:30.619773 19368 net.cpp:157] Top shape: 1 256 61 65 (1015040)
I0928 17:57:30.619777 19368 net.cpp:165] Memory required for data: 1241950236
I0928 17:57:30.619786 19368 layer_factory.hpp:77] Creating layer scale4b2_branch2a
I0928 17:57:30.619796 19368 net.cpp:106] Creating Layer scale4b2_branch2a
I0928 17:57:30.619801 19368 net.cpp:454] scale4b2_branch2a <- res4b2_branch2a
I0928 17:57:30.619807 19368 net.cpp:397] scale4b2_branch2a -> res4b2_branch2a (in-place)
I0928 17:57:30.619838 19368 layer_factory.hpp:77] Creating layer scale4b2_branch2a
I0928 17:57:30.619931 19368 net.cpp:150] Setting up scale4b2_branch2a
I0928 17:57:30.619938 19368 net.cpp:157] Top shape: 1 256 61 65 (1015040)
I0928 17:57:30.619942 19368 net.cpp:165] Memory required for data: 1246010396
I0928 17:57:30.619949 19368 layer_factory.hpp:77] Creating layer res4b2_branch2a_relu
I0928 17:57:30.619954 19368 net.cpp:106] Creating Layer res4b2_branch2a_relu
I0928 17:57:30.619959 19368 net.cpp:454] res4b2_branch2a_relu <- res4b2_branch2a
I0928 17:57:30.619964 19368 net.cpp:397] res4b2_branch2a_relu -> res4b2_branch2a (in-place)
I0928 17:57:30.619971 19368 net.cpp:150] Setting up res4b2_branch2a_relu
I0928 17:57:30.619974 19368 net.cpp:157] Top shape: 1 256 61 65 (1015040)
I0928 17:57:30.619978 19368 net.cpp:165] Memory required for data: 1250070556
I0928 17:57:30.619982 19368 layer_factory.hpp:77] Creating layer res4b2_branch2b
I0928 17:57:30.619989 19368 net.cpp:106] Creating Layer res4b2_branch2b
I0928 17:57:30.619993 19368 net.cpp:454] res4b2_branch2b <- res4b2_branch2a
I0928 17:57:30.620000 19368 net.cpp:411] res4b2_branch2b -> res4b2_branch2b
I0928 17:57:30.621315 19368 net.cpp:150] Setting up res4b2_branch2b
I0928 17:57:30.621327 19368 net.cpp:157] Top shape: 1 256 61 65 (1015040)
I0928 17:57:30.621331 19368 net.cpp:165] Memory required for data: 1254130716
I0928 17:57:30.621340 19368 layer_factory.hpp:77] Creating layer bn4b2_branch2b
I0928 17:57:30.621347 19368 net.cpp:106] Creating Layer bn4b2_branch2b
I0928 17:57:30.621351 19368 net.cpp:454] bn4b2_branch2b <- res4b2_branch2b
I0928 17:57:30.621358 19368 net.cpp:397] bn4b2_branch2b -> res4b2_branch2b (in-place)
I0928 17:57:30.621506 19368 net.cpp:150] Setting up bn4b2_branch2b
I0928 17:57:30.621512 19368 net.cpp:157] Top shape: 1 256 61 65 (1015040)
I0928 17:57:30.621516 19368 net.cpp:165] Memory required for data: 1258190876
I0928 17:57:30.621525 19368 layer_factory.hpp:77] Creating layer scale4b2_branch2b
I0928 17:57:30.643133 19368 net.cpp:106] Creating Layer scale4b2_branch2b
I0928 17:57:30.643151 19368 net.cpp:454] scale4b2_branch2b <- res4b2_branch2b
I0928 17:57:30.643167 19368 net.cpp:397] scale4b2_branch2b -> res4b2_branch2b (in-place)
I0928 17:57:30.643260 19368 layer_factory.hpp:77] Creating layer scale4b2_branch2b
I0928 17:57:30.643461 19368 net.cpp:150] Setting up scale4b2_branch2b
I0928 17:57:30.643477 19368 net.cpp:157] Top shape: 1 256 61 65 (1015040)
I0928 17:57:30.643484 19368 net.cpp:165] Memory required for data: 1262251036
I0928 17:57:30.643501 19368 layer_factory.hpp:77] Creating layer res4b2_branch2b_relu
I0928 17:57:30.643515 19368 net.cpp:106] Creating Layer res4b2_branch2b_relu
I0928 17:57:30.643524 19368 net.cpp:454] res4b2_branch2b_relu <- res4b2_branch2b
I0928 17:57:30.643535 19368 net.cpp:397] res4b2_branch2b_relu -> res4b2_branch2b (in-place)
I0928 17:57:30.643548 19368 net.cpp:150] Setting up res4b2_branch2b_relu
I0928 17:57:30.643559 19368 net.cpp:157] Top shape: 1 256 61 65 (1015040)
I0928 17:57:30.643568 19368 net.cpp:165] Memory required for data: 1266311196
I0928 17:57:30.643576 19368 layer_factory.hpp:77] Creating layer res4b2_branch2c
I0928 17:57:30.643592 19368 net.cpp:106] Creating Layer res4b2_branch2c
I0928 17:57:30.643604 19368 net.cpp:454] res4b2_branch2c <- res4b2_branch2b
I0928 17:57:30.643641 19368 net.cpp:411] res4b2_branch2c -> res4b2_branch2c
I0928 17:57:30.646077 19368 net.cpp:150] Setting up res4b2_branch2c
I0928 17:57:30.646100 19368 net.cpp:157] Top shape: 1 1024 61 65 (4060160)
I0928 17:57:30.646111 19368 net.cpp:165] Memory required for data: 1282551836
I0928 17:57:30.646126 19368 layer_factory.hpp:77] Creating layer bn4b2_branch2c
I0928 17:57:30.646142 19368 net.cpp:106] Creating Layer bn4b2_branch2c
I0928 17:57:30.646152 19368 net.cpp:454] bn4b2_branch2c <- res4b2_branch2c
I0928 17:57:30.646167 19368 net.cpp:397] bn4b2_branch2c -> res4b2_branch2c (in-place)
I0928 17:57:30.646543 19368 net.cpp:150] Setting up bn4b2_branch2c
I0928 17:57:30.646560 19368 net.cpp:157] Top shape: 1 1024 61 65 (4060160)
I0928 17:57:30.646570 19368 net.cpp:165] Memory required for data: 1298792476
I0928 17:57:30.646596 19368 layer_factory.hpp:77] Creating layer scale4b2_branch2c
I0928 17:57:30.646615 19368 net.cpp:106] Creating Layer scale4b2_branch2c
I0928 17:57:30.646626 19368 net.cpp:454] scale4b2_branch2c <- res4b2_branch2c
I0928 17:57:30.646642 19368 net.cpp:397] scale4b2_branch2c -> res4b2_branch2c (in-place)
I0928 17:57:30.646725 19368 layer_factory.hpp:77] Creating layer scale4b2_branch2c
I0928 17:57:30.646978 19368 net.cpp:150] Setting up scale4b2_branch2c
I0928 17:57:30.646998 19368 net.cpp:157] Top shape: 1 1024 61 65 (4060160)
I0928 17:57:30.647009 19368 net.cpp:165] Memory required for data: 1315033116
I0928 17:57:30.647032 19368 layer_factory.hpp:77] Creating layer res4b2
I0928 17:57:30.647047 19368 net.cpp:106] Creating Layer res4b2
I0928 17:57:30.647059 19368 net.cpp:454] res4b2 <- res4b1_res4b1_relu_0_split_1
I0928 17:57:30.647073 19368 net.cpp:454] res4b2 <- res4b2_branch2c
I0928 17:57:30.647089 19368 net.cpp:411] res4b2 -> res4b2
I0928 17:57:30.647145 19368 net.cpp:150] Setting up res4b2
I0928 17:57:30.647157 19368 net.cpp:157] Top shape: 1 1024 61 65 (4060160)
I0928 17:57:30.647164 19368 net.cpp:165] Memory required for data: 1331273756
I0928 17:57:30.647172 19368 layer_factory.hpp:77] Creating layer res4b2_relu
I0928 17:57:30.647186 19368 net.cpp:106] Creating Layer res4b2_relu
I0928 17:57:30.647197 19368 net.cpp:454] res4b2_relu <- res4b2
I0928 17:57:30.647210 19368 net.cpp:397] res4b2_relu -> res4b2 (in-place)
I0928 17:57:30.647228 19368 net.cpp:150] Setting up res4b2_relu
I0928 17:57:30.647240 19368 net.cpp:157] Top shape: 1 1024 61 65 (4060160)
I0928 17:57:30.647250 19368 net.cpp:165] Memory required for data: 1347514396
I0928 17:57:30.647260 19368 layer_factory.hpp:77] Creating layer res4b2_res4b2_relu_0_split
I0928 17:57:30.647274 19368 net.cpp:106] Creating Layer res4b2_res4b2_relu_0_split
I0928 17:57:30.647282 19368 net.cpp:454] res4b2_res4b2_relu_0_split <- res4b2
I0928 17:57:30.647292 19368 net.cpp:411] res4b2_res4b2_relu_0_split -> res4b2_res4b2_relu_0_split_0
I0928 17:57:30.647305 19368 net.cpp:411] res4b2_res4b2_relu_0_split -> res4b2_res4b2_relu_0_split_1
I0928 17:57:30.647363 19368 net.cpp:150] Setting up res4b2_res4b2_relu_0_split
I0928 17:57:30.647375 19368 net.cpp:157] Top shape: 1 1024 61 65 (4060160)
I0928 17:57:30.647383 19368 net.cpp:157] Top shape: 1 1024 61 65 (4060160)
I0928 17:57:30.647389 19368 net.cpp:165] Memory required for data: 1379995676
I0928 17:57:30.647395 19368 layer_factory.hpp:77] Creating layer res4b3_branch2a
I0928 17:57:30.647410 19368 net.cpp:106] Creating Layer res4b3_branch2a
I0928 17:57:30.647418 19368 net.cpp:454] res4b3_branch2a <- res4b2_res4b2_relu_0_split_0
I0928 17:57:30.647428 19368 net.cpp:411] res4b3_branch2a -> res4b3_branch2a
I0928 17:57:30.647936 19368 net.cpp:150] Setting up res4b3_branch2a
I0928 17:57:30.647948 19368 net.cpp:157] Top shape: 1 256 61 65 (1015040)
I0928 17:57:30.647955 19368 net.cpp:165] Memory required for data: 1384055836
I0928 17:57:30.647966 19368 layer_factory.hpp:77] Creating layer bn4b3_branch2a
I0928 17:57:30.647979 19368 net.cpp:106] Creating Layer bn4b3_branch2a
I0928 17:57:30.647986 19368 net.cpp:454] bn4b3_branch2a <- res4b3_branch2a
I0928 17:57:30.647997 19368 net.cpp:397] bn4b3_branch2a -> res4b3_branch2a (in-place)
I0928 17:57:30.648267 19368 net.cpp:150] Setting up bn4b3_branch2a
I0928 17:57:30.648278 19368 net.cpp:157] Top shape: 1 256 61 65 (1015040)
I0928 17:57:30.648285 19368 net.cpp:165] Memory required for data: 1388115996
I0928 17:57:30.648301 19368 layer_factory.hpp:77] Creating layer scale4b3_branch2a
I0928 17:57:30.648311 19368 net.cpp:106] Creating Layer scale4b3_branch2a
I0928 17:57:30.648319 19368 net.cpp:454] scale4b3_branch2a <- res4b3_branch2a
I0928 17:57:30.648329 19368 net.cpp:397] scale4b3_branch2a -> res4b3_branch2a (in-place)
I0928 17:57:30.648385 19368 layer_factory.hpp:77] Creating layer scale4b3_branch2a
I0928 17:57:30.648548 19368 net.cpp:150] Setting up scale4b3_branch2a
I0928 17:57:30.648560 19368 net.cpp:157] Top shape: 1 256 61 65 (1015040)
I0928 17:57:30.648566 19368 net.cpp:165] Memory required for data: 1392176156
I0928 17:57:30.648578 19368 layer_factory.hpp:77] Creating layer res4b3_branch2a_relu
I0928 17:57:30.648588 19368 net.cpp:106] Creating Layer res4b3_branch2a_relu
I0928 17:57:30.648596 19368 net.cpp:454] res4b3_branch2a_relu <- res4b3_branch2a
I0928 17:57:30.648604 19368 net.cpp:397] res4b3_branch2a_relu -> res4b3_branch2a (in-place)
I0928 17:57:30.648614 19368 net.cpp:150] Setting up res4b3_branch2a_relu
I0928 17:57:30.648622 19368 net.cpp:157] Top shape: 1 256 61 65 (1015040)
I0928 17:57:30.648629 19368 net.cpp:165] Memory required for data: 1396236316
I0928 17:57:30.648636 19368 layer_factory.hpp:77] Creating layer res4b3_branch2b
I0928 17:57:30.648648 19368 net.cpp:106] Creating Layer res4b3_branch2b
I0928 17:57:30.648654 19368 net.cpp:454] res4b3_branch2b <- res4b3_branch2a
I0928 17:57:30.648665 19368 net.cpp:411] res4b3_branch2b -> res4b3_branch2b
I0928 17:57:30.650928 19368 net.cpp:150] Setting up res4b3_branch2b
I0928 17:57:30.650949 19368 net.cpp:157] Top shape: 1 256 61 65 (1015040)
I0928 17:57:30.650955 19368 net.cpp:165] Memory required for data: 1400296476
I0928 17:57:30.650969 19368 layer_factory.hpp:77] Creating layer bn4b3_branch2b
I0928 17:57:30.650981 19368 net.cpp:106] Creating Layer bn4b3_branch2b
I0928 17:57:30.650990 19368 net.cpp:454] bn4b3_branch2b <- res4b3_branch2b
I0928 17:57:30.651000 19368 net.cpp:397] bn4b3_branch2b -> res4b3_branch2b (in-place)
I0928 17:57:30.651257 19368 net.cpp:150] Setting up bn4b3_branch2b
I0928 17:57:30.651268 19368 net.cpp:157] Top shape: 1 256 61 65 (1015040)
I0928 17:57:30.651274 19368 net.cpp:165] Memory required for data: 1404356636
I0928 17:57:30.651289 19368 layer_factory.hpp:77] Creating layer scale4b3_branch2b
I0928 17:57:30.651301 19368 net.cpp:106] Creating Layer scale4b3_branch2b
I0928 17:57:30.651309 19368 net.cpp:454] scale4b3_branch2b <- res4b3_branch2b
I0928 17:57:30.651319 19368 net.cpp:397] scale4b3_branch2b -> res4b3_branch2b (in-place)
I0928 17:57:30.651374 19368 layer_factory.hpp:77] Creating layer scale4b3_branch2b
I0928 17:57:30.651536 19368 net.cpp:150] Setting up scale4b3_branch2b
I0928 17:57:30.651547 19368 net.cpp:157] Top shape: 1 256 61 65 (1015040)
I0928 17:57:30.651554 19368 net.cpp:165] Memory required for data: 1408416796
I0928 17:57:30.651567 19368 layer_factory.hpp:77] Creating layer res4b3_branch2b_relu
I0928 17:57:30.651576 19368 net.cpp:106] Creating Layer res4b3_branch2b_relu
I0928 17:57:30.651584 19368 net.cpp:454] res4b3_branch2b_relu <- res4b3_branch2b
I0928 17:57:30.651593 19368 net.cpp:397] res4b3_branch2b_relu -> res4b3_branch2b (in-place)
I0928 17:57:30.651602 19368 net.cpp:150] Setting up res4b3_branch2b_relu
I0928 17:57:30.651612 19368 net.cpp:157] Top shape: 1 256 61 65 (1015040)
I0928 17:57:30.651618 19368 net.cpp:165] Memory required for data: 1412476956
I0928 17:57:30.651624 19368 layer_factory.hpp:77] Creating layer res4b3_branch2c
I0928 17:57:30.651636 19368 net.cpp:106] Creating Layer res4b3_branch2c
I0928 17:57:30.651643 19368 net.cpp:454] res4b3_branch2c <- res4b3_branch2b
I0928 17:57:30.651654 19368 net.cpp:411] res4b3_branch2c -> res4b3_branch2c
I0928 17:57:30.653544 19368 net.cpp:150] Setting up res4b3_branch2c
I0928 17:57:30.653564 19368 net.cpp:157] Top shape: 1 1024 61 65 (4060160)
I0928 17:57:30.653591 19368 net.cpp:165] Memory required for data: 1428717596
I0928 17:57:30.653605 19368 layer_factory.hpp:77] Creating layer bn4b3_branch2c
I0928 17:57:30.653618 19368 net.cpp:106] Creating Layer bn4b3_branch2c
I0928 17:57:30.653626 19368 net.cpp:454] bn4b3_branch2c <- res4b3_branch2c
I0928 17:57:30.653637 19368 net.cpp:397] bn4b3_branch2c -> res4b3_branch2c (in-place)
I0928 17:57:30.653905 19368 net.cpp:150] Setting up bn4b3_branch2c
I0928 17:57:30.653915 19368 net.cpp:157] Top shape: 1 1024 61 65 (4060160)
I0928 17:57:30.653923 19368 net.cpp:165] Memory required for data: 1444958236
I0928 17:57:30.653937 19368 layer_factory.hpp:77] Creating layer scale4b3_branch2c
I0928 17:57:30.653949 19368 net.cpp:106] Creating Layer scale4b3_branch2c
I0928 17:57:30.653957 19368 net.cpp:454] scale4b3_branch2c <- res4b3_branch2c
I0928 17:57:30.653966 19368 net.cpp:397] scale4b3_branch2c -> res4b3_branch2c (in-place)
I0928 17:57:30.654019 19368 layer_factory.hpp:77] Creating layer scale4b3_branch2c
I0928 17:57:30.654193 19368 net.cpp:150] Setting up scale4b3_branch2c
I0928 17:57:30.654204 19368 net.cpp:157] Top shape: 1 1024 61 65 (4060160)
I0928 17:57:30.654211 19368 net.cpp:165] Memory required for data: 1461198876
I0928 17:57:30.654223 19368 layer_factory.hpp:77] Creating layer res4b3
I0928 17:57:30.654234 19368 net.cpp:106] Creating Layer res4b3
I0928 17:57:30.654242 19368 net.cpp:454] res4b3 <- res4b2_res4b2_relu_0_split_1
I0928 17:57:30.654250 19368 net.cpp:454] res4b3 <- res4b3_branch2c
I0928 17:57:30.654259 19368 net.cpp:411] res4b3 -> res4b3
I0928 17:57:30.654296 19368 net.cpp:150] Setting up res4b3
I0928 17:57:30.654306 19368 net.cpp:157] Top shape: 1 1024 61 65 (4060160)
I0928 17:57:30.654312 19368 net.cpp:165] Memory required for data: 1477439516
I0928 17:57:30.654319 19368 layer_factory.hpp:77] Creating layer res4b3_relu
I0928 17:57:30.654330 19368 net.cpp:106] Creating Layer res4b3_relu
I0928 17:57:30.654336 19368 net.cpp:454] res4b3_relu <- res4b3
I0928 17:57:30.654345 19368 net.cpp:397] res4b3_relu -> res4b3 (in-place)
I0928 17:57:30.654355 19368 net.cpp:150] Setting up res4b3_relu
I0928 17:57:30.654363 19368 net.cpp:157] Top shape: 1 1024 61 65 (4060160)
I0928 17:57:30.654369 19368 net.cpp:165] Memory required for data: 1493680156
I0928 17:57:30.654376 19368 layer_factory.hpp:77] Creating layer res4b3_res4b3_relu_0_split
I0928 17:57:30.654384 19368 net.cpp:106] Creating Layer res4b3_res4b3_relu_0_split
I0928 17:57:30.654392 19368 net.cpp:454] res4b3_res4b3_relu_0_split <- res4b3
I0928 17:57:30.654402 19368 net.cpp:411] res4b3_res4b3_relu_0_split -> res4b3_res4b3_relu_0_split_0
I0928 17:57:30.654413 19368 net.cpp:411] res4b3_res4b3_relu_0_split -> res4b3_res4b3_relu_0_split_1
I0928 17:57:30.654467 19368 net.cpp:150] Setting up res4b3_res4b3_relu_0_split
I0928 17:57:30.654479 19368 net.cpp:157] Top shape: 1 1024 61 65 (4060160)
I0928 17:57:30.654486 19368 net.cpp:157] Top shape: 1 1024 61 65 (4060160)
I0928 17:57:30.654492 19368 net.cpp:165] Memory required for data: 1526161436
I0928 17:57:30.654498 19368 layer_factory.hpp:77] Creating layer res4b4_branch2a
I0928 17:57:30.654512 19368 net.cpp:106] Creating Layer res4b4_branch2a
I0928 17:57:30.654520 19368 net.cpp:454] res4b4_branch2a <- res4b3_res4b3_relu_0_split_0
I0928 17:57:30.654531 19368 net.cpp:411] res4b4_branch2a -> res4b4_branch2a
I0928 17:57:30.655030 19368 net.cpp:150] Setting up res4b4_branch2a
I0928 17:57:30.655042 19368 net.cpp:157] Top shape: 1 256 61 65 (1015040)
I0928 17:57:30.655048 19368 net.cpp:165] Memory required for data: 1530221596
I0928 17:57:30.655058 19368 layer_factory.hpp:77] Creating layer bn4b4_branch2a
I0928 17:57:30.655069 19368 net.cpp:106] Creating Layer bn4b4_branch2a
I0928 17:57:30.655078 19368 net.cpp:454] bn4b4_branch2a <- res4b4_branch2a
I0928 17:57:30.655087 19368 net.cpp:397] bn4b4_branch2a -> res4b4_branch2a (in-place)
I0928 17:57:30.655341 19368 net.cpp:150] Setting up bn4b4_branch2a
I0928 17:57:30.655351 19368 net.cpp:157] Top shape: 1 256 61 65 (1015040)
I0928 17:57:30.655359 19368 net.cpp:165] Memory required for data: 1534281756
I0928 17:57:30.655385 19368 layer_factory.hpp:77] Creating layer scale4b4_branch2a
I0928 17:57:30.655396 19368 net.cpp:106] Creating Layer scale4b4_branch2a
I0928 17:57:30.655403 19368 net.cpp:454] scale4b4_branch2a <- res4b4_branch2a
I0928 17:57:30.655414 19368 net.cpp:397] scale4b4_branch2a -> res4b4_branch2a (in-place)
I0928 17:57:30.655472 19368 layer_factory.hpp:77] Creating layer scale4b4_branch2a
I0928 17:57:30.655632 19368 net.cpp:150] Setting up scale4b4_branch2a
I0928 17:57:30.655643 19368 net.cpp:157] Top shape: 1 256 61 65 (1015040)
I0928 17:57:30.655650 19368 net.cpp:165] Memory required for data: 1538341916
I0928 17:57:30.655663 19368 layer_factory.hpp:77] Creating layer res4b4_branch2a_relu
I0928 17:57:30.655673 19368 net.cpp:106] Creating Layer res4b4_branch2a_relu
I0928 17:57:30.655679 19368 net.cpp:454] res4b4_branch2a_relu <- res4b4_branch2a
I0928 17:57:30.655689 19368 net.cpp:397] res4b4_branch2a_relu -> res4b4_branch2a (in-place)
I0928 17:57:30.655699 19368 net.cpp:150] Setting up res4b4_branch2a_relu
I0928 17:57:30.655707 19368 net.cpp:157] Top shape: 1 256 61 65 (1015040)
I0928 17:57:30.655714 19368 net.cpp:165] Memory required for data: 1542402076
I0928 17:57:30.655720 19368 layer_factory.hpp:77] Creating layer res4b4_branch2b
I0928 17:57:30.655731 19368 net.cpp:106] Creating Layer res4b4_branch2b
I0928 17:57:30.655738 19368 net.cpp:454] res4b4_branch2b <- res4b4_branch2a
I0928 17:57:30.655748 19368 net.cpp:411] res4b4_branch2b -> res4b4_branch2b
I0928 17:57:30.657976 19368 net.cpp:150] Setting up res4b4_branch2b
I0928 17:57:30.657997 19368 net.cpp:157] Top shape: 1 256 61 65 (1015040)
I0928 17:57:30.658004 19368 net.cpp:165] Memory required for data: 1546462236
I0928 17:57:30.658017 19368 layer_factory.hpp:77] Creating layer bn4b4_branch2b
I0928 17:57:30.658031 19368 net.cpp:106] Creating Layer bn4b4_branch2b
I0928 17:57:30.658041 19368 net.cpp:454] bn4b4_branch2b <- res4b4_branch2b
I0928 17:57:30.658051 19368 net.cpp:397] bn4b4_branch2b -> res4b4_branch2b (in-place)
I0928 17:57:30.658311 19368 net.cpp:150] Setting up bn4b4_branch2b
I0928 17:57:30.658323 19368 net.cpp:157] Top shape: 1 256 61 65 (1015040)
I0928 17:57:30.658329 19368 net.cpp:165] Memory required for data: 1550522396
I0928 17:57:30.658344 19368 layer_factory.hpp:77] Creating layer scale4b4_branch2b
I0928 17:57:30.658355 19368 net.cpp:106] Creating Layer scale4b4_branch2b
I0928 17:57:30.658363 19368 net.cpp:454] scale4b4_branch2b <- res4b4_branch2b
I0928 17:57:30.658372 19368 net.cpp:397] scale4b4_branch2b -> res4b4_branch2b (in-place)
I0928 17:57:30.658428 19368 layer_factory.hpp:77] Creating layer scale4b4_branch2b
I0928 17:57:30.658593 19368 net.cpp:150] Setting up scale4b4_branch2b
I0928 17:57:30.658605 19368 net.cpp:157] Top shape: 1 256 61 65 (1015040)
I0928 17:57:30.673395 19368 net.cpp:165] Memory required for data: 1554582556
I0928 17:57:30.673427 19368 layer_factory.hpp:77] Creating layer res4b4_branch2b_relu
I0928 17:57:30.673444 19368 net.cpp:106] Creating Layer res4b4_branch2b_relu
I0928 17:57:30.673457 19368 net.cpp:454] res4b4_branch2b_relu <- res4b4_branch2b
I0928 17:57:30.673473 19368 net.cpp:397] res4b4_branch2b_relu -> res4b4_branch2b (in-place)
I0928 17:57:30.673491 19368 net.cpp:150] Setting up res4b4_branch2b_relu
I0928 17:57:30.673506 19368 net.cpp:157] Top shape: 1 256 61 65 (1015040)
I0928 17:57:30.673517 19368 net.cpp:165] Memory required for data: 1558642716
I0928 17:57:30.673527 19368 layer_factory.hpp:77] Creating layer res4b4_branch2c
I0928 17:57:30.673563 19368 net.cpp:106] Creating Layer res4b4_branch2c
I0928 17:57:30.673573 19368 net.cpp:454] res4b4_branch2c <- res4b4_branch2b
I0928 17:57:30.673591 19368 net.cpp:411] res4b4_branch2c -> res4b4_branch2c
I0928 17:57:30.676476 19368 net.cpp:150] Setting up res4b4_branch2c
I0928 17:57:30.676501 19368 net.cpp:157] Top shape: 1 1024 61 65 (4060160)
I0928 17:57:30.676512 19368 net.cpp:165] Memory required for data: 1574883356
I0928 17:57:30.676532 19368 layer_factory.hpp:77] Creating layer bn4b4_branch2c
I0928 17:57:30.676575 19368 net.cpp:106] Creating Layer bn4b4_branch2c
I0928 17:57:30.676587 19368 net.cpp:454] bn4b4_branch2c <- res4b4_branch2c
I0928 17:57:30.676604 19368 net.cpp:397] bn4b4_branch2c -> res4b4_branch2c (in-place)
I0928 17:57:30.676992 19368 net.cpp:150] Setting up bn4b4_branch2c
I0928 17:57:30.677013 19368 net.cpp:157] Top shape: 1 1024 61 65 (4060160)
I0928 17:57:30.677024 19368 net.cpp:165] Memory required for data: 1591123996
I0928 17:57:30.677048 19368 layer_factory.hpp:77] Creating layer scale4b4_branch2c
I0928 17:57:30.677067 19368 net.cpp:106] Creating Layer scale4b4_branch2c
I0928 17:57:30.677078 19368 net.cpp:454] scale4b4_branch2c <- res4b4_branch2c
I0928 17:57:30.677094 19368 net.cpp:397] scale4b4_branch2c -> res4b4_branch2c (in-place)
I0928 17:57:30.677175 19368 layer_factory.hpp:77] Creating layer scale4b4_branch2c
I0928 17:57:30.677433 19368 net.cpp:150] Setting up scale4b4_branch2c
I0928 17:57:30.677451 19368 net.cpp:157] Top shape: 1 1024 61 65 (4060160)
I0928 17:57:30.677461 19368 net.cpp:165] Memory required for data: 1607364636
I0928 17:57:30.677481 19368 layer_factory.hpp:77] Creating layer res4b4
I0928 17:57:30.677498 19368 net.cpp:106] Creating Layer res4b4
I0928 17:57:30.677511 19368 net.cpp:454] res4b4 <- res4b3_res4b3_relu_0_split_1
I0928 17:57:30.677525 19368 net.cpp:454] res4b4 <- res4b4_branch2c
I0928 17:57:30.677551 19368 net.cpp:411] res4b4 -> res4b4
I0928 17:57:30.677608 19368 net.cpp:150] Setting up res4b4
I0928 17:57:30.677626 19368 net.cpp:157] Top shape: 1 1024 61 65 (4060160)
I0928 17:57:30.677636 19368 net.cpp:165] Memory required for data: 1623605276
I0928 17:57:30.677647 19368 layer_factory.hpp:77] Creating layer res4b4_relu
I0928 17:57:30.677661 19368 net.cpp:106] Creating Layer res4b4_relu
I0928 17:57:30.677673 19368 net.cpp:454] res4b4_relu <- res4b4
I0928 17:57:30.677687 19368 net.cpp:397] res4b4_relu -> res4b4 (in-place)
I0928 17:57:30.677705 19368 net.cpp:150] Setting up res4b4_relu
I0928 17:57:30.677717 19368 net.cpp:157] Top shape: 1 1024 61 65 (4060160)
I0928 17:57:30.677729 19368 net.cpp:165] Memory required for data: 1639845916
I0928 17:57:30.677739 19368 layer_factory.hpp:77] Creating layer res4b4_res4b4_relu_0_split
I0928 17:57:30.677753 19368 net.cpp:106] Creating Layer res4b4_res4b4_relu_0_split
I0928 17:57:30.677763 19368 net.cpp:454] res4b4_res4b4_relu_0_split <- res4b4
I0928 17:57:30.677780 19368 net.cpp:411] res4b4_res4b4_relu_0_split -> res4b4_res4b4_relu_0_split_0
I0928 17:57:30.677800 19368 net.cpp:411] res4b4_res4b4_relu_0_split -> res4b4_res4b4_relu_0_split_1
I0928 17:57:30.677886 19368 net.cpp:150] Setting up res4b4_res4b4_relu_0_split
I0928 17:57:30.677902 19368 net.cpp:157] Top shape: 1 1024 61 65 (4060160)
I0928 17:57:30.677917 19368 net.cpp:157] Top shape: 1 1024 61 65 (4060160)
I0928 17:57:30.677927 19368 net.cpp:165] Memory required for data: 1672327196
I0928 17:57:30.677938 19368 layer_factory.hpp:77] Creating layer res4b5_branch2a
I0928 17:57:30.677959 19368 net.cpp:106] Creating Layer res4b5_branch2a
I0928 17:57:30.677969 19368 net.cpp:454] res4b5_branch2a <- res4b4_res4b4_relu_0_split_0
I0928 17:57:30.677981 19368 net.cpp:411] res4b5_branch2a -> res4b5_branch2a
I0928 17:57:30.678532 19368 net.cpp:150] Setting up res4b5_branch2a
I0928 17:57:30.678547 19368 net.cpp:157] Top shape: 1 256 61 65 (1015040)
I0928 17:57:30.678555 19368 net.cpp:165] Memory required for data: 1676387356
I0928 17:57:30.678567 19368 layer_factory.hpp:77] Creating layer bn4b5_branch2a
I0928 17:57:30.678580 19368 net.cpp:106] Creating Layer bn4b5_branch2a
I0928 17:57:30.678586 19368 net.cpp:454] bn4b5_branch2a <- res4b5_branch2a
I0928 17:57:30.678598 19368 net.cpp:397] bn4b5_branch2a -> res4b5_branch2a (in-place)
I0928 17:57:30.678855 19368 net.cpp:150] Setting up bn4b5_branch2a
I0928 17:57:30.678866 19368 net.cpp:157] Top shape: 1 256 61 65 (1015040)
I0928 17:57:30.678872 19368 net.cpp:165] Memory required for data: 1680447516
I0928 17:57:30.678889 19368 layer_factory.hpp:77] Creating layer scale4b5_branch2a
I0928 17:57:30.678900 19368 net.cpp:106] Creating Layer scale4b5_branch2a
I0928 17:57:30.678925 19368 net.cpp:454] scale4b5_branch2a <- res4b5_branch2a
I0928 17:57:30.678934 19368 net.cpp:397] scale4b5_branch2a -> res4b5_branch2a (in-place)
I0928 17:57:30.678994 19368 layer_factory.hpp:77] Creating layer scale4b5_branch2a
I0928 17:57:30.679165 19368 net.cpp:150] Setting up scale4b5_branch2a
I0928 17:57:30.679177 19368 net.cpp:157] Top shape: 1 256 61 65 (1015040)
I0928 17:57:30.679183 19368 net.cpp:165] Memory required for data: 1684507676
I0928 17:57:30.679195 19368 layer_factory.hpp:77] Creating layer res4b5_branch2a_relu
I0928 17:57:30.679206 19368 net.cpp:106] Creating Layer res4b5_branch2a_relu
I0928 17:57:30.679214 19368 net.cpp:454] res4b5_branch2a_relu <- res4b5_branch2a
I0928 17:57:30.679222 19368 net.cpp:397] res4b5_branch2a_relu -> res4b5_branch2a (in-place)
I0928 17:57:30.679232 19368 net.cpp:150] Setting up res4b5_branch2a_relu
I0928 17:57:30.679241 19368 net.cpp:157] Top shape: 1 256 61 65 (1015040)
I0928 17:57:30.679247 19368 net.cpp:165] Memory required for data: 1688567836
I0928 17:57:30.679253 19368 layer_factory.hpp:77] Creating layer res4b5_branch2b
I0928 17:57:30.679265 19368 net.cpp:106] Creating Layer res4b5_branch2b
I0928 17:57:30.679273 19368 net.cpp:454] res4b5_branch2b <- res4b5_branch2a
I0928 17:57:30.679283 19368 net.cpp:411] res4b5_branch2b -> res4b5_branch2b
I0928 17:57:30.681529 19368 net.cpp:150] Setting up res4b5_branch2b
I0928 17:57:30.681560 19368 net.cpp:157] Top shape: 1 256 61 65 (1015040)
I0928 17:57:30.681568 19368 net.cpp:165] Memory required for data: 1692627996
I0928 17:57:30.681581 19368 layer_factory.hpp:77] Creating layer bn4b5_branch2b
I0928 17:57:30.681593 19368 net.cpp:106] Creating Layer bn4b5_branch2b
I0928 17:57:30.681602 19368 net.cpp:454] bn4b5_branch2b <- res4b5_branch2b
I0928 17:57:30.681613 19368 net.cpp:397] bn4b5_branch2b -> res4b5_branch2b (in-place)
I0928 17:57:30.681875 19368 net.cpp:150] Setting up bn4b5_branch2b
I0928 17:57:30.681886 19368 net.cpp:157] Top shape: 1 256 61 65 (1015040)
I0928 17:57:30.681892 19368 net.cpp:165] Memory required for data: 1696688156
I0928 17:57:30.681908 19368 layer_factory.hpp:77] Creating layer scale4b5_branch2b
I0928 17:57:30.681919 19368 net.cpp:106] Creating Layer scale4b5_branch2b
I0928 17:57:30.681926 19368 net.cpp:454] scale4b5_branch2b <- res4b5_branch2b
I0928 17:57:30.681936 19368 net.cpp:397] scale4b5_branch2b -> res4b5_branch2b (in-place)
I0928 17:57:30.681993 19368 layer_factory.hpp:77] Creating layer scale4b5_branch2b
I0928 17:57:30.682158 19368 net.cpp:150] Setting up scale4b5_branch2b
I0928 17:57:30.682168 19368 net.cpp:157] Top shape: 1 256 61 65 (1015040)
I0928 17:57:30.682175 19368 net.cpp:165] Memory required for data: 1700748316
I0928 17:57:30.682188 19368 layer_factory.hpp:77] Creating layer res4b5_branch2b_relu
I0928 17:57:30.682199 19368 net.cpp:106] Creating Layer res4b5_branch2b_relu
I0928 17:57:30.682205 19368 net.cpp:454] res4b5_branch2b_relu <- res4b5_branch2b
I0928 17:57:30.682214 19368 net.cpp:397] res4b5_branch2b_relu -> res4b5_branch2b (in-place)
I0928 17:57:30.682224 19368 net.cpp:150] Setting up res4b5_branch2b_relu
I0928 17:57:30.682234 19368 net.cpp:157] Top shape: 1 256 61 65 (1015040)
I0928 17:57:30.682240 19368 net.cpp:165] Memory required for data: 1704808476
I0928 17:57:30.682245 19368 layer_factory.hpp:77] Creating layer res4b5_branch2c
I0928 17:57:30.682258 19368 net.cpp:106] Creating Layer res4b5_branch2c
I0928 17:57:30.682265 19368 net.cpp:454] res4b5_branch2c <- res4b5_branch2b
I0928 17:57:30.682276 19368 net.cpp:411] res4b5_branch2c -> res4b5_branch2c
I0928 17:57:30.684123 19368 net.cpp:150] Setting up res4b5_branch2c
I0928 17:57:30.684144 19368 net.cpp:157] Top shape: 1 1024 61 65 (4060160)
I0928 17:57:30.684151 19368 net.cpp:165] Memory required for data: 1721049116
I0928 17:57:30.684164 19368 layer_factory.hpp:77] Creating layer bn4b5_branch2c
I0928 17:57:30.684175 19368 net.cpp:106] Creating Layer bn4b5_branch2c
I0928 17:57:30.684182 19368 net.cpp:454] bn4b5_branch2c <- res4b5_branch2c
I0928 17:57:30.684195 19368 net.cpp:397] bn4b5_branch2c -> res4b5_branch2c (in-place)
I0928 17:57:30.684485 19368 net.cpp:150] Setting up bn4b5_branch2c
I0928 17:57:30.684496 19368 net.cpp:157] Top shape: 1 1024 61 65 (4060160)
I0928 17:57:30.684504 19368 net.cpp:165] Memory required for data: 1737289756
I0928 17:57:30.684520 19368 layer_factory.hpp:77] Creating layer scale4b5_branch2c
I0928 17:57:30.684531 19368 net.cpp:106] Creating Layer scale4b5_branch2c
I0928 17:57:30.684538 19368 net.cpp:454] scale4b5_branch2c <- res4b5_branch2c
I0928 17:57:30.684547 19368 net.cpp:397] scale4b5_branch2c -> res4b5_branch2c (in-place)
I0928 17:57:30.684602 19368 layer_factory.hpp:77] Creating layer scale4b5_branch2c
I0928 17:57:30.684777 19368 net.cpp:150] Setting up scale4b5_branch2c
I0928 17:57:30.684787 19368 net.cpp:157] Top shape: 1 1024 61 65 (4060160)
I0928 17:57:30.684794 19368 net.cpp:165] Memory required for data: 1753530396
I0928 17:57:30.684870 19368 layer_factory.hpp:77] Creating layer res4b5
I0928 17:57:30.684881 19368 net.cpp:106] Creating Layer res4b5
I0928 17:57:30.684890 19368 net.cpp:454] res4b5 <- res4b4_res4b4_relu_0_split_1
I0928 17:57:30.684897 19368 net.cpp:454] res4b5 <- res4b5_branch2c
I0928 17:57:30.684908 19368 net.cpp:411] res4b5 -> res4b5
I0928 17:57:30.684945 19368 net.cpp:150] Setting up res4b5
I0928 17:57:30.684955 19368 net.cpp:157] Top shape: 1 1024 61 65 (4060160)
I0928 17:57:30.684962 19368 net.cpp:165] Memory required for data: 1769771036
I0928 17:57:30.684969 19368 layer_factory.hpp:77] Creating layer res4b5_relu
I0928 17:57:30.684978 19368 net.cpp:106] Creating Layer res4b5_relu
I0928 17:57:30.684984 19368 net.cpp:454] res4b5_relu <- res4b5
I0928 17:57:30.684993 19368 net.cpp:397] res4b5_relu -> res4b5 (in-place)
I0928 17:57:30.685004 19368 net.cpp:150] Setting up res4b5_relu
I0928 17:57:30.685012 19368 net.cpp:157] Top shape: 1 1024 61 65 (4060160)
I0928 17:57:30.685019 19368 net.cpp:165] Memory required for data: 1786011676
I0928 17:57:30.685024 19368 layer_factory.hpp:77] Creating layer res4b5_res4b5_relu_0_split
I0928 17:57:30.685034 19368 net.cpp:106] Creating Layer res4b5_res4b5_relu_0_split
I0928 17:57:30.685041 19368 net.cpp:454] res4b5_res4b5_relu_0_split <- res4b5
I0928 17:57:30.685051 19368 net.cpp:411] res4b5_res4b5_relu_0_split -> res4b5_res4b5_relu_0_split_0
I0928 17:57:30.685062 19368 net.cpp:411] res4b5_res4b5_relu_0_split -> res4b5_res4b5_relu_0_split_1
I0928 17:57:30.685119 19368 net.cpp:150] Setting up res4b5_res4b5_relu_0_split
I0928 17:57:30.685128 19368 net.cpp:157] Top shape: 1 1024 61 65 (4060160)
I0928 17:57:30.685137 19368 net.cpp:157] Top shape: 1 1024 61 65 (4060160)
I0928 17:57:30.685142 19368 net.cpp:165] Memory required for data: 1818492956
I0928 17:57:30.685149 19368 layer_factory.hpp:77] Creating layer res4b6_branch2a
I0928 17:57:30.685161 19368 net.cpp:106] Creating Layer res4b6_branch2a
I0928 17:57:30.685169 19368 net.cpp:454] res4b6_branch2a <- res4b5_res4b5_relu_0_split_0
I0928 17:57:30.685179 19368 net.cpp:411] res4b6_branch2a -> res4b6_branch2a
I0928 17:57:30.685696 19368 net.cpp:150] Setting up res4b6_branch2a
I0928 17:57:30.685708 19368 net.cpp:157] Top shape: 1 256 61 65 (1015040)
I0928 17:57:30.685714 19368 net.cpp:165] Memory required for data: 1822553116
I0928 17:57:30.685724 19368 layer_factory.hpp:77] Creating layer bn4b6_branch2a
I0928 17:57:30.685736 19368 net.cpp:106] Creating Layer bn4b6_branch2a
I0928 17:57:30.685744 19368 net.cpp:454] bn4b6_branch2a <- res4b6_branch2a
I0928 17:57:30.685753 19368 net.cpp:397] bn4b6_branch2a -> res4b6_branch2a (in-place)
I0928 17:57:30.686012 19368 net.cpp:150] Setting up bn4b6_branch2a
I0928 17:57:30.686022 19368 net.cpp:157] Top shape: 1 256 61 65 (1015040)
I0928 17:57:30.686028 19368 net.cpp:165] Memory required for data: 1826613276
I0928 17:57:30.686043 19368 layer_factory.hpp:77] Creating layer scale4b6_branch2a
I0928 17:57:30.686053 19368 net.cpp:106] Creating Layer scale4b6_branch2a
I0928 17:57:30.686060 19368 net.cpp:454] scale4b6_branch2a <- res4b6_branch2a
I0928 17:57:30.686070 19368 net.cpp:397] scale4b6_branch2a -> res4b6_branch2a (in-place)
I0928 17:57:30.686141 19368 layer_factory.hpp:77] Creating layer scale4b6_branch2a
I0928 17:57:30.686305 19368 net.cpp:150] Setting up scale4b6_branch2a
I0928 17:57:30.686317 19368 net.cpp:157] Top shape: 1 256 61 65 (1015040)
I0928 17:57:30.686324 19368 net.cpp:165] Memory required for data: 1830673436
I0928 17:57:30.686336 19368 layer_factory.hpp:77] Creating layer res4b6_branch2a_relu
I0928 17:57:30.686347 19368 net.cpp:106] Creating Layer res4b6_branch2a_relu
I0928 17:57:30.686354 19368 net.cpp:454] res4b6_branch2a_relu <- res4b6_branch2a
I0928 17:57:30.686363 19368 net.cpp:397] res4b6_branch2a_relu -> res4b6_branch2a (in-place)
I0928 17:57:30.686373 19368 net.cpp:150] Setting up res4b6_branch2a_relu
I0928 17:57:30.686381 19368 net.cpp:157] Top shape: 1 256 61 65 (1015040)
I0928 17:57:30.686388 19368 net.cpp:165] Memory required for data: 1834733596
I0928 17:57:30.686394 19368 layer_factory.hpp:77] Creating layer res4b6_branch2b
I0928 17:57:30.686406 19368 net.cpp:106] Creating Layer res4b6_branch2b
I0928 17:57:30.686414 19368 net.cpp:454] res4b6_branch2b <- res4b6_branch2a
I0928 17:57:30.686424 19368 net.cpp:411] res4b6_branch2b -> res4b6_branch2b
I0928 17:57:30.688657 19368 net.cpp:150] Setting up res4b6_branch2b
I0928 17:57:30.688678 19368 net.cpp:157] Top shape: 1 256 61 65 (1015040)
I0928 17:57:30.688683 19368 net.cpp:165] Memory required for data: 1838793756
I0928 17:57:30.688697 19368 layer_factory.hpp:77] Creating layer bn4b6_branch2b
I0928 17:57:30.688709 19368 net.cpp:106] Creating Layer bn4b6_branch2b
I0928 17:57:30.688717 19368 net.cpp:454] bn4b6_branch2b <- res4b6_branch2b
I0928 17:57:30.688729 19368 net.cpp:397] bn4b6_branch2b -> res4b6_branch2b (in-place)
I0928 17:57:30.688997 19368 net.cpp:150] Setting up bn4b6_branch2b
I0928 17:57:30.689007 19368 net.cpp:157] Top shape: 1 256 61 65 (1015040)
I0928 17:57:30.689013 19368 net.cpp:165] Memory required for data: 1842853916
I0928 17:57:30.689028 19368 layer_factory.hpp:77] Creating layer scale4b6_branch2b
I0928 17:57:30.689040 19368 net.cpp:106] Creating Layer scale4b6_branch2b
I0928 17:57:30.689046 19368 net.cpp:454] scale4b6_branch2b <- res4b6_branch2b
I0928 17:57:30.689056 19368 net.cpp:397] scale4b6_branch2b -> res4b6_branch2b (in-place)
I0928 17:57:30.689113 19368 layer_factory.hpp:77] Creating layer scale4b6_branch2b
I0928 17:57:30.689282 19368 net.cpp:150] Setting up scale4b6_branch2b
I0928 17:57:30.689293 19368 net.cpp:157] Top shape: 1 256 61 65 (1015040)
…
I0928 17:57:32.378582 19368 net.cpp:106] Creating Layer res5a_branch2a_relu_res075
I0928 17:57:32.378592 19368 net.cpp:454] res5a_branch2a_relu_res075 <- res5a_branch2a_res075
I0928 17:57:32.378605 19368 net.cpp:397] res5a_branch2a_relu_res075 -> res5a_branch2a_res075 (in-place)
I0928 17:57:32.378619 19368 net.cpp:150] Setting up res5a_branch2a_relu_res075
I0928 17:57:32.385821 19368 net.cpp:157] Top shape: 1 512 46 49 (1154048)
I0928 17:57:32.385838 19368 net.cpp:165] Memory required for data: 9219778588
I0928 17:57:32.385848 19368 layer_factory.hpp:77] Creating layer res5a_branch2b_res075
I0928 17:57:32.385869 19368 net.cpp:106] Creating Layer res5a_branch2b_res075
I0928 17:57:32.385880 19368 net.cpp:454] res5a_branch2b_res075 <- res5a_branch2a_res075
I0928 17:57:32.385907 19368 net.cpp:411] res5a_branch2b_res075 -> res5a_branch2b_res075
I0928 17:57:32.394831 19368 net.cpp:150] Setting up res5a_branch2b_res075
I0928 17:57:32.394855 19368 net.cpp:157] Top shape: 1 512 46 49 (1154048)
I0928 17:57:32.394860 19368 net.cpp:165] Memory required for data: 9224394780
I0928 17:57:32.394870 19368 net.cpp:514] Sharing parameters 'res5a_branch2b_0' owned by layer 'res5a_branch2b', param index 0
I0928 17:57:32.394876 19368 layer_factory.hpp:77] Creating layer bn5a_branch2b_res075
I0928 17:57:32.394891 19368 net.cpp:106] Creating Layer bn5a_branch2b_res075
I0928 17:57:32.394897 19368 net.cpp:454] bn5a_branch2b_res075 <- res5a_branch2b_res075
I0928 17:57:32.394907 19368 net.cpp:397] bn5a_branch2b_res075 -> res5a_branch2b_res075 (in-place)
I0928 17:57:32.395131 19368 net.cpp:150] Setting up bn5a_branch2b_res075
I0928 17:57:32.395138 19368 net.cpp:157] Top shape: 1 512 46 49 (1154048)
I0928 17:57:32.395143 19368 net.cpp:165] Memory required for data: 9229010972
I0928 17:57:32.395150 19368 net.cpp:514] Sharing parameters 'bn5a_branch2b_0' owned by layer 'bn5a_branch2b', param index 0
I0928 17:57:32.395156 19368 net.cpp:514] Sharing parameters 'bn5a_branch2b_1' owned by layer 'bn5a_branch2b', param index 1
I0928 17:57:32.395179 19368 net.cpp:514] Sharing parameters 'bn5a_branch2b_2' owned by layer 'bn5a_branch2b', param index 2
I0928 17:57:32.395184 19368 layer_factory.hpp:77] Creating layer scale5a_branch2b_res075
I0928 17:57:32.395193 19368 net.cpp:106] Creating Layer scale5a_branch2b_res075
I0928 17:57:32.395198 19368 net.cpp:454] scale5a_branch2b_res075 <- res5a_branch2b_res075
I0928 17:57:32.395205 19368 net.cpp:397] scale5a_branch2b_res075 -> res5a_branch2b_res075 (in-place)
I0928 17:57:32.395248 19368 layer_factory.hpp:77] Creating layer scale5a_branch2b_res075
I0928 17:57:32.395385 19368 net.cpp:150] Setting up scale5a_branch2b_res075
I0928 17:57:32.395392 19368 net.cpp:157] Top shape: 1 512 46 49 (1154048)
I0928 17:57:32.395396 19368 net.cpp:165] Memory required for data: 9233627164
I0928 17:57:32.395403 19368 net.cpp:514] Sharing parameters 'scale5a_branch2b_0' owned by layer 'scale5a_branch2b', param index 0
I0928 17:57:32.395411 19368 net.cpp:514] Sharing parameters 'scale5a_branch2b_1' owned by layer 'scale5a_branch2b', param index 1
I0928 17:57:32.395416 19368 layer_factory.hpp:77] Creating layer res5a_branch2b_relu_res075
I0928 17:57:32.395422 19368 net.cpp:106] Creating Layer res5a_branch2b_relu_res075
I0928 17:57:32.395427 19368 net.cpp:454] res5a_branch2b_relu_res075 <- res5a_branch2b_res075
I0928 17:57:32.395434 19368 net.cpp:397] res5a_branch2b_relu_res075 -> res5a_branch2b_res075 (in-place)
I0928 17:57:32.395442 19368 net.cpp:150] Setting up res5a_branch2b_relu_res075
I0928 17:57:32.395447 19368 net.cpp:157] Top shape: 1 512 46 49 (1154048)
I0928 17:57:32.395452 19368 net.cpp:165] Memory required for data: 9238243356
I0928 17:57:32.395457 19368 layer_factory.hpp:77] Creating layer res5a_branch2c_res075
I0928 17:57:32.395465 19368 net.cpp:106] Creating Layer res5a_branch2c_res075
I0928 17:57:32.395469 19368 net.cpp:454] res5a_branch2c_res075 <- res5a_branch2b_res075
I0928 17:57:32.395476 19368 net.cpp:411] res5a_branch2c_res075 -> res5a_branch2c_res075
I0928 17:57:32.398425 19368 net.cpp:150] Setting up res5a_branch2c_res075
I0928 17:57:32.398463 19368 net.cpp:157] Top shape: 1 2048 46 49 (4616192)
I0928 17:57:32.398468 19368 net.cpp:165] Memory required for data: 9256708124
I0928 17:57:32.398476 19368 net.cpp:514] Sharing parameters 'res5a_branch2c_0' owned by layer 'res5a_branch2c', param index 0
I0928 17:57:32.398483 19368 layer_factory.hpp:77] Creating layer bn5a_branch2c_res075
I0928 17:57:32.398494 19368 net.cpp:106] Creating Layer bn5a_branch2c_res075
I0928 17:57:32.398499 19368 net.cpp:454] bn5a_branch2c_res075 <- res5a_branch2c_res075
I0928 17:57:32.398509 19368 net.cpp:397] bn5a_branch2c_res075 -> res5a_branch2c_res075 (in-place)
I0928 17:57:32.398722 19368 net.cpp:150] Setting up bn5a_branch2c_res075
I0928 17:57:32.398730 19368 net.cpp:157] Top shape: 1 2048 46 49 (4616192)
I0928 17:57:32.398735 19368 net.cpp:165] Memory required for data: 9275172892
I0928 17:57:32.398741 19368 net.cpp:514] Sharing parameters 'bn5a_branch2c_0' owned by layer 'bn5a_branch2c', param index 0
I0928 17:57:32.398747 19368 net.cpp:514] Sharing parameters 'bn5a_branch2c_1' owned by layer 'bn5a_branch2c', param index 1
I0928 17:57:32.398752 19368 net.cpp:514] Sharing parameters 'bn5a_branch2c_2' owned by layer 'bn5a_branch2c', param index 2
I0928 17:57:32.398757 19368 layer_factory.hpp:77] Creating layer scale5a_branch2c_res075
I0928 17:57:32.398766 19368 net.cpp:106] Creating Layer scale5a_branch2c_res075
I0928 17:57:32.398772 19368 net.cpp:454] scale5a_branch2c_res075 <- res5a_branch2c_res075
I0928 17:57:32.398778 19368 net.cpp:397] scale5a_branch2c_res075 -> res5a_branch2c_res075 (in-place)
I0928 17:57:32.398825 19368 layer_factory.hpp:77] Creating layer scale5a_branch2c_res075
I0928 17:57:32.398953 19368 net.cpp:150] Setting up scale5a_branch2c_res075
I0928 17:57:32.398960 19368 net.cpp:157] Top shape: 1 2048 46 49 (4616192)
I0928 17:57:32.398965 19368 net.cpp:165] Memory required for data: 9293637660
I0928 17:57:32.398972 19368 net.cpp:514] Sharing parameters 'scale5a_branch2c_0' owned by layer 'scale5a_branch2c', param index 0
I0928 17:57:32.398993 19368 net.cpp:514] Sharing parameters 'scale5a_branch2c_1' owned by layer 'scale5a_branch2c', param index 1
I0928 17:57:32.398998 19368 layer_factory.hpp:77] Creating layer res5a_res075
I0928 17:57:32.399005 19368 net.cpp:106] Creating Layer res5a_res075
I0928 17:57:32.399010 19368 net.cpp:454] res5a_res075 <- res5a_branch1_res075
I0928 17:57:32.399016 19368 net.cpp:454] res5a_res075 <- res5a_branch2c_res075
I0928 17:57:32.399026 19368 net.cpp:411] res5a_res075 -> res5a_res075
I0928 17:57:32.399052 19368 net.cpp:150] Setting up res5a_res075
I0928 17:57:32.399058 19368 net.cpp:157] Top shape: 1 2048 46 49 (4616192)
I0928 17:57:32.399062 19368 net.cpp:165] Memory required for data: 9312102428
I0928 17:57:32.399067 19368 layer_factory.hpp:77] Creating layer res5a_relu_res075
I0928 17:57:32.399075 19368 net.cpp:106] Creating Layer res5a_relu_res075
I0928 17:57:32.399080 19368 net.cpp:454] res5a_relu_res075 <- res5a_res075
I0928 17:57:32.399086 19368 net.cpp:397] res5a_relu_res075 -> res5a_res075 (in-place)
I0928 17:57:32.399093 19368 net.cpp:150] Setting up res5a_relu_res075
I0928 17:57:32.399098 19368 net.cpp:157] Top shape: 1 2048 46 49 (4616192)
I0928 17:57:32.399102 19368 net.cpp:165] Memory required for data: 9330567196
I0928 17:57:32.399106 19368 layer_factory.hpp:77] Creating layer res5a_res075_res5a_relu_res075_0_split
I0928 17:57:32.399113 19368 net.cpp:106] Creating Layer res5a_res075_res5a_relu_res075_0_split
I0928 17:57:32.399117 19368 net.cpp:454] res5a_res075_res5a_relu_res075_0_split <- res5a_res075
I0928 17:57:32.399124 19368 net.cpp:411] res5a_res075_res5a_relu_res075_0_split -> res5a_res075_res5a_relu_res075_0_split_0
I0928 17:57:32.399133 19368 net.cpp:411] res5a_res075_res5a_relu_res075_0_split -> res5a_res075_res5a_relu_res075_0_split_1
I0928 17:57:32.399171 19368 net.cpp:150] Setting up res5a_res075_res5a_relu_res075_0_split
I0928 17:57:32.399178 19368 net.cpp:157] Top shape: 1 2048 46 49 (4616192)
I0928 17:57:32.399183 19368 net.cpp:157] Top shape: 1 2048 46 49 (4616192)
I0928 17:57:32.399188 19368 net.cpp:165] Memory required for data: 9367496732
I0928 17:57:32.399191 19368 layer_factory.hpp:77] Creating layer res5b_branch2a_res075
I0928 17:57:32.399201 19368 net.cpp:106] Creating Layer res5b_branch2a_res075
I0928 17:57:32.399206 19368 net.cpp:454] res5b_branch2a_res075 <- res5a_res075_res5a_relu_res075_0_split_0
I0928 17:57:32.399214 19368 net.cpp:411] res5b_branch2a_res075 -> res5b_branch2a_res075
I0928 17:57:32.401496 19368 net.cpp:150] Setting up res5b_branch2a_res075
I0928 17:57:32.401513 19368 net.cpp:157] Top shape: 1 512 46 49 (1154048)
I0928 17:57:32.401516 19368 net.cpp:165] Memory required for data: 9372112924
I0928 17:57:32.401523 19368 net.cpp:514] Sharing parameters 'res5b_branch2a_0' owned by layer 'res5b_branch2a', param index 0
I0928 17:57:32.401528 19368 layer_factory.hpp:77] Creating layer bn5b_branch2a_res075
I0928 17:57:32.401547 19368 net.cpp:106] Creating Layer bn5b_branch2a_res075
I0928 17:57:32.401568 19368 net.cpp:454] bn5b_branch2a_res075 <- res5b_branch2a_res075
I0928 17:57:32.401587 19368 net.cpp:397] bn5b_branch2a_res075 -> res5b_branch2a_res075 (in-place)
I0928 17:57:32.401778 19368 net.cpp:150] Setting up bn5b_branch2a_res075
I0928 17:57:32.401783 19368 net.cpp:157] Top shape: 1 512 46 49 (1154048)
I0928 17:57:32.401787 19368 net.cpp:165] Memory required for data: 9376729116
I0928 17:57:32.401792 19368 net.cpp:514] Sharing parameters 'bn5b_branch2a_0' owned by layer 'bn5b_branch2a', param index 0
I0928 17:57:32.401795 19368 net.cpp:514] Sharing parameters 'bn5b_branch2a_1' owned by layer 'bn5b_branch2a', param index 1
I0928 17:57:32.401799 19368 net.cpp:514] Sharing parameters 'bn5b_branch2a_2' owned by layer 'bn5b_branch2a', param index 2
I0928 17:57:32.401803 19368 layer_factory.hpp:77] Creating layer scale5b_branch2a_res075
I0928 17:57:32.401808 19368 net.cpp:106] Creating Layer scale5b_branch2a_res075
I0928 17:57:32.401811 19368 net.cpp:454] scale5b_branch2a_res075 <- res5b_branch2a_res075
I0928 17:57:32.401818 19368 net.cpp:397] scale5b_branch2a_res075 -> res5b_branch2a_res075 (in-place)
I0928 17:57:32.401860 19368 layer_factory.hpp:77] Creating layer scale5b_branch2a_res075
I0928 17:57:32.401958 19368 net.cpp:150] Setting up scale5b_branch2a_res075
I0928 17:57:32.401963 19368 net.cpp:157] Top shape: 1 512 46 49 (1154048)
I0928 17:57:32.401967 19368 net.cpp:165] Memory required for data: 9381345308
I0928 17:57:32.401971 19368 net.cpp:514] Sharing parameters 'scale5b_branch2a_0' owned by layer 'scale5b_branch2a', param index 0
I0928 17:57:32.401976 19368 net.cpp:514] Sharing parameters 'scale5b_branch2a_1' owned by layer 'scale5b_branch2a', param index 1
I0928 17:57:32.401979 19368 layer_factory.hpp:77] Creating layer res5b_branch2a_relu_res075
I0928 17:57:32.401985 19368 net.cpp:106] Creating Layer res5b_branch2a_relu_res075
I0928 17:57:32.401989 19368 net.cpp:454] res5b_branch2a_relu_res075 <- res5b_branch2a_res075
I0928 17:57:32.401993 19368 net.cpp:397] res5b_branch2a_relu_res075 -> res5b_branch2a_res075 (in-place)
I0928 17:57:32.401999 19368 net.cpp:150] Setting up res5b_branch2a_relu_res075
I0928 17:57:32.402002 19368 net.cpp:157] Top shape: 1 512 46 49 (1154048)
I0928 17:57:32.402005 19368 net.cpp:165] Memory required for data: 9385961500
I0928 17:57:32.402009 19368 layer_factory.hpp:77] Creating layer res5b_branch2b_res075
I0928 17:57:32.402015 19368 net.cpp:106] Creating Layer res5b_branch2b_res075
I0928 17:57:32.402019 19368 net.cpp:454] res5b_branch2b_res075 <- res5b_branch2a_res075
I0928 17:57:32.402024 19368 net.cpp:411] res5b_branch2b_res075 -> res5b_branch2b_res075
I0928 17:57:32.405725 19368 net.cpp:150] Setting up res5b_branch2b_res075
I0928 17:57:32.405745 19368 net.cpp:157] Top shape: 1 512 46 49 (1154048)
I0928 17:57:32.405748 19368 net.cpp:165] Memory required for data: 9390577692
I0928 17:57:32.405755 19368 net.cpp:514] Sharing parameters 'res5b_branch2b_0' owned by layer 'res5b_branch2b', param index 0
I0928 17:57:32.405759 19368 layer_factory.hpp:77] Creating layer bn5b_branch2b_res075
I0928 17:57:32.405768 19368 net.cpp:106] Creating Layer bn5b_branch2b_res075
I0928 17:57:32.405773 19368 net.cpp:454] bn5b_branch2b_res075 <- res5b_branch2b_res075
I0928 17:57:32.405782 19368 net.cpp:397] bn5b_branch2b_res075 -> res5b_branch2b_res075 (in-place)
I0928 17:57:32.405984 19368 net.cpp:150] Setting up bn5b_branch2b_res075
I0928 17:57:32.405989 19368 net.cpp:157] Top shape: 1 512 46 49 (1154048)
I0928 17:57:32.405992 19368 net.cpp:165] Memory required for data: 9395193884
I0928 17:57:32.405998 19368 net.cpp:514] Sharing parameters 'bn5b_branch2b_0' owned by layer 'bn5b_branch2b', param index 0
I0928 17:57:32.406002 19368 net.cpp:514] Sharing parameters 'bn5b_branch2b_1' owned by layer 'bn5b_branch2b', param index 1
I0928 17:57:32.406006 19368 net.cpp:514] Sharing parameters 'bn5b_branch2b_2' owned by layer 'bn5b_branch2b', param index 2
I0928 17:57:32.406009 19368 layer_factory.hpp:77] Creating layer scale5b_branch2b_res075
I0928 17:57:32.406016 19368 net.cpp:106] Creating Layer scale5b_branch2b_res075
I0928 17:57:32.406019 19368 net.cpp:454] scale5b_branch2b_res075 <- res5b_branch2b_res075
I0928 17:57:32.406024 19368 net.cpp:397] scale5b_branch2b_res075 -> res5b_branch2b_res075 (in-place)
I0928 17:57:32.406056 19368 layer_factory.hpp:77] Creating layer scale5b_branch2b_res075
I0928 17:57:32.406157 19368 net.cpp:150] Setting up scale5b_branch2b_res075
I0928 17:57:32.406162 19368 net.cpp:157] Top shape: 1 512 46 49 (1154048)
I0928 17:57:32.406164 19368 net.cpp:165] Memory required for data: 9399810076
I0928 17:57:32.406169 19368 net.cpp:514] Sharing parameters 'scale5b_branch2b_0' owned by layer 'scale5b_branch2b', param index 0
I0928 17:57:32.406173 19368 net.cpp:514] Sharing parameters 'scale5b_branch2b_1' owned by layer 'scale5b_branch2b', param index 1
I0928 17:57:32.406177 19368 layer_factory.hpp:77] Creating layer res5b_branch2b_relu_res075
I0928 17:57:32.406183 19368 net.cpp:106] Creating Layer res5b_branch2b_relu_res075
I0928 17:57:32.406186 19368 net.cpp:454] res5b_branch2b_relu_res075 <- res5b_branch2b_res075
I0928 17:57:32.406234 19368 net.cpp:397] res5b_branch2b_relu_res075 -> res5b_branch2b_res075 (in-place)
I0928 17:57:32.406239 19368 net.cpp:150] Setting up res5b_branch2b_relu_res075
I0928 17:57:32.406244 19368 net.cpp:157] Top shape: 1 512 46 49 (1154048)
I0928 17:57:32.406246 19368 net.cpp:165] Memory required for data: 9404426268
I0928 17:57:32.406250 19368 layer_factory.hpp:77] Creating layer res5b_branch2c_res075
I0928 17:57:32.406260 19368 net.cpp:106] Creating Layer res5b_branch2c_res075
I0928 17:57:32.406263 19368 net.cpp:454] res5b_branch2c_res075 <- res5b_branch2b_res075
I0928 17:57:32.406268 19368 net.cpp:411] res5b_branch2c_res075 -> res5b_branch2c_res075
I0928 17:57:32.408249 19368 net.cpp:150] Setting up res5b_branch2c_res075
I0928 17:57:32.408265 19368 net.cpp:157] Top shape: 1 2048 46 49 (4616192)
I0928 17:57:32.408268 19368 net.cpp:165] Memory required for data: 9422891036
I0928 17:57:32.408274 19368 net.cpp:514] Sharing parameters 'res5b_branch2c_0' owned by layer 'res5b_branch2c', param index 0
I0928 17:57:32.408278 19368 layer_factory.hpp:77] Creating layer bn5b_branch2c_res075
I0928 17:57:32.408288 19368 net.cpp:106] Creating Layer bn5b_branch2c_res075
I0928 17:57:32.408293 19368 net.cpp:454] bn5b_branch2c_res075 <- res5b_branch2c_res075
I0928 17:57:32.408298 19368 net.cpp:397] bn5b_branch2c_res075 -> res5b_branch2c_res075 (in-place)
I0928 17:57:32.408453 19368 net.cpp:150] Setting up bn5b_branch2c_res075
I0928 17:57:32.408458 19368 net.cpp:157] Top shape: 1 2048 46 49 (4616192)
I0928 17:57:32.408462 19368 net.cpp:165] Memory required for data: 9441355804
I0928 17:57:32.408466 19368 net.cpp:514] Sharing parameters 'bn5b_branch2c_0' owned by layer 'bn5b_branch2c', param index 0
I0928 17:57:32.416168 19368 net.cpp:514] Sharing parameters 'bn5b_branch2c_1' owned by layer 'bn5b_branch2c', param index 1
I0928 17:57:32.416191 19368 net.cpp:514] Sharing parameters 'bn5b_branch2c_2' owned by layer 'bn5b_branch2c', param index 2
I0928 17:57:32.416195 19368 layer_factory.hpp:77] Creating layer scale5b_branch2c_res075
I0928 17:57:32.416203 19368 net.cpp:106] Creating Layer scale5b_branch2c_res075
I0928 17:57:32.416208 19368 net.cpp:454] scale5b_branch2c_res075 <- res5b_branch2c_res075
I0928 17:57:32.416216 19368 net.cpp:397] scale5b_branch2c_res075 -> res5b_branch2c_res075 (in-place)
I0928 17:57:32.416285 19368 layer_factory.hpp:77] Creating layer scale5b_branch2c_res075
I0928 17:57:32.416391 19368 net.cpp:150] Setting up scale5b_branch2c_res075
I0928 17:57:32.416396 19368 net.cpp:157] Top shape: 1 2048 46 49 (4616192)
I0928 17:57:32.416399 19368 net.cpp:165] Memory required for data: 9459820572
I0928 17:57:32.416405 19368 net.cpp:514] Sharing parameters 'scale5b_branch2c_0' owned by layer 'scale5b_branch2c', param index 0
I0928 17:57:32.416410 19368 net.cpp:514] Sharing parameters 'scale5b_branch2c_1' owned by layer 'scale5b_branch2c', param index 1
I0928 17:57:32.416414 19368 layer_factory.hpp:77] Creating layer res5b_res075
I0928 17:57:32.416419 19368 net.cpp:106] Creating Layer res5b_res075
I0928 17:57:32.416422 19368 net.cpp:454] res5b_res075 <- res5a_res075_res5a_relu_res075_0_split_1
I0928 17:57:32.416429 19368 net.cpp:454] res5b_res075 <- res5b_branch2c_res075
I0928 17:57:32.416433 19368 net.cpp:411] res5b_res075 -> res5b_res075
I0928 17:57:32.416453 19368 net.cpp:150] Setting up res5b_res075
I0928 17:57:32.416460 19368 net.cpp:157] Top shape: 1 2048 46 49 (4616192)
I0928 17:57:32.416463 19368 net.cpp:165] Memory required for data: 9478285340
I0928 17:57:32.416466 19368 layer_factory.hpp:77] Creating layer res5b_relu_res075
I0928 17:57:32.416472 19368 net.cpp:106] Creating Layer res5b_relu_res075
I0928 17:57:32.416476 19368 net.cpp:454] res5b_relu_res075 <- res5b_res075
I0928 17:57:32.416481 19368 net.cpp:397] res5b_relu_res075 -> res5b_res075 (in-place)
I0928 17:57:32.416487 19368 net.cpp:150] Setting up res5b_relu_res075
I0928 17:57:32.416491 19368 net.cpp:157] Top shape: 1 2048 46 49 (4616192)
I0928 17:57:32.416493 19368 net.cpp:165] Memory required for data: 9496750108
I0928 17:57:32.416496 19368 layer_factory.hpp:77] Creating layer res5b_res075_res5b_relu_res075_0_split
I0928 17:57:32.416517 19368 net.cpp:106] Creating Layer res5b_res075_res5b_relu_res075_0_split
I0928 17:57:32.416520 19368 net.cpp:454] res5b_res075_res5b_relu_res075_0_split <- res5b_res075
I0928 17:57:32.416525 19368 net.cpp:411] res5b_res075_res5b_relu_res075_0_split -> res5b_res075_res5b_relu_res075_0_split_0
I0928 17:57:32.416532 19368 net.cpp:411] res5b_res075_res5b_relu_res075_0_split -> res5b_res075_res5b_relu_res075_0_split_1
I0928 17:57:32.416561 19368 net.cpp:150] Setting up res5b_res075_res5b_relu_res075_0_split
I0928 17:57:32.416566 19368 net.cpp:157] Top shape: 1 2048 46 49 (4616192)
I0928 17:57:32.416570 19368 net.cpp:157] Top shape: 1 2048 46 49 (4616192)
I0928 17:57:32.416574 19368 net.cpp:165] Memory required for data: 9533679644
I0928 17:57:32.416575 19368 layer_factory.hpp:77] Creating layer res5c_branch2a_res075
I0928 17:57:32.416584 19368 net.cpp:106] Creating Layer res5c_branch2a_res075
I0928 17:57:32.416587 19368 net.cpp:454] res5c_branch2a_res075 <- res5b_res075_res5b_relu_res075_0_split_0
I0928 17:57:32.416592 19368 net.cpp:411] res5c_branch2a_res075 -> res5c_branch2a_res075
I0928 17:57:32.418710 19368 net.cpp:150] Setting up res5c_branch2a_res075
I0928 17:57:32.418741 19368 net.cpp:157] Top shape: 1 512 46 49 (1154048)
I0928 17:57:32.418745 19368 net.cpp:165] Memory required for data: 9538295836
I0928 17:57:32.418752 19368 net.cpp:514] Sharing parameters 'res5c_branch2a_0' owned by layer 'res5c_branch2a', param index 0
I0928 17:57:32.418757 19368 layer_factory.hpp:77] Creating layer bn5c_branch2a_res075
I0928 17:57:32.418766 19368 net.cpp:106] Creating Layer bn5c_branch2a_res075
I0928 17:57:32.418771 19368 net.cpp:454] bn5c_branch2a_res075 <- res5c_branch2a_res075
I0928 17:57:32.418777 19368 net.cpp:397] bn5c_branch2a_res075 -> res5c_branch2a_res075 (in-place)
I0928 17:57:32.418984 19368 net.cpp:150] Setting up bn5c_branch2a_res075
I0928 17:57:32.418990 19368 net.cpp:157] Top shape: 1 512 46 49 (1154048)
I0928 17:57:32.418993 19368 net.cpp:165] Memory required for data: 9542912028
I0928 17:57:32.418998 19368 net.cpp:514] Sharing parameters 'bn5c_branch2a_0' owned by layer 'bn5c_branch2a', param index 0
I0928 17:57:32.419001 19368 net.cpp:514] Sharing parameters 'bn5c_branch2a_1' owned by layer 'bn5c_branch2a', param index 1
I0928 17:57:32.419019 19368 net.cpp:514] Sharing parameters 'bn5c_branch2a_2' owned by layer 'bn5c_branch2a', param index 2
I0928 17:57:32.419023 19368 layer_factory.hpp:77] Creating layer scale5c_branch2a_res075
I0928 17:57:32.419028 19368 net.cpp:106] Creating Layer scale5c_branch2a_res075
I0928 17:57:32.419031 19368 net.cpp:454] scale5c_branch2a_res075 <- res5c_branch2a_res075
I0928 17:57:32.419050 19368 net.cpp:397] scale5c_branch2a_res075 -> res5c_branch2a_res075 (in-place)
I0928 17:57:32.419109 19368 layer_factory.hpp:77] Creating layer scale5c_branch2a_res075
I0928 17:57:32.419245 19368 net.cpp:150] Setting up scale5c_branch2a_res075
I0928 17:57:32.419250 19368 net.cpp:157] Top shape: 1 512 46 49 (1154048)
I0928 17:57:32.419253 19368 net.cpp:165] Memory required for data: 9547528220
I0928 17:57:32.419260 19368 net.cpp:514] Sharing parameters 'scale5c_branch2a_0' owned by layer 'scale5c_branch2a', param index 0
I0928 17:57:32.419263 19368 net.cpp:514] Sharing parameters 'scale5c_branch2a_1' owned by layer 'scale5c_branch2a', param index 1
I0928 17:57:32.419266 19368 layer_factory.hpp:77] Creating layer res5c_branch2a_relu_res075
I0928 17:57:32.419271 19368 net.cpp:106] Creating Layer res5c_branch2a_relu_res075
I0928 17:57:32.419275 19368 net.cpp:454] res5c_branch2a_relu_res075 <- res5c_branch2a_res075
I0928 17:57:32.419281 19368 net.cpp:397] res5c_branch2a_relu_res075 -> res5c_branch2a_res075 (in-place)
I0928 17:57:32.419286 19368 net.cpp:150] Setting up res5c_branch2a_relu_res075
I0928 17:57:32.419289 19368 net.cpp:157] Top shape: 1 512 46 49 (1154048)
I0928 17:57:32.419293 19368 net.cpp:165] Memory required for data: 9552144412
I0928 17:57:32.419296 19368 layer_factory.hpp:77] Creating layer res5c_branch2b_res075
I0928 17:57:32.419314 19368 net.cpp:106] Creating Layer res5c_branch2b_res075
I0928 17:57:32.419319 19368 net.cpp:454] res5c_branch2b_res075 <- res5c_branch2a_res075
I0928 17:57:32.419324 19368 net.cpp:411] res5c_branch2b_res075 -> res5c_branch2b_res075
I0928 17:57:32.422955 19368 net.cpp:150] Setting up res5c_branch2b_res075
I0928 17:57:32.422977 19368 net.cpp:157] Top shape: 1 512 46 49 (1154048)
I0928 17:57:32.422983 19368 net.cpp:165] Memory required for data: 9556760604
I0928 17:57:32.422991 19368 net.cpp:514] Sharing parameters 'res5c_branch2b_0' owned by layer 'res5c_branch2b', param index 0
I0928 17:57:32.422996 19368 layer_factory.hpp:77] Creating layer bn5c_branch2b_res075
I0928 17:57:32.423035 19368 net.cpp:106] Creating Layer bn5c_branch2b_res075
I0928 17:57:32.423040 19368 net.cpp:454] bn5c_branch2b_res075 <- res5c_branch2b_res075
I0928 17:57:32.423060 19368 net.cpp:397] bn5c_branch2b_res075 -> res5c_branch2b_res075 (in-place)
I0928 17:57:32.423290 19368 net.cpp:150] Setting up bn5c_branch2b_res075
I0928 17:57:32.423295 19368 net.cpp:157] Top shape: 1 512 46 49 (1154048)
I0928 17:57:32.423296 19368 net.cpp:165] Memory required for data: 9561376796
I0928 17:57:32.423301 19368 net.cpp:514] Sharing parameters 'bn5c_branch2b_0' owned by layer 'bn5c_branch2b', param index 0
I0928 17:57:32.423305 19368 net.cpp:514] Sharing parameters 'bn5c_branch2b_1' owned by layer 'bn5c_branch2b', param index 1
I0928 17:57:32.423308 19368 net.cpp:514] Sharing parameters 'bn5c_branch2b_2' owned by layer 'bn5c_branch2b', param index 2
I0928 17:57:32.423326 19368 layer_factory.hpp:77] Creating layer scale5c_branch2b_res075
I0928 17:57:32.423333 19368 net.cpp:106] Creating Layer scale5c_branch2b_res075
I0928 17:57:32.423337 19368 net.cpp:454] scale5c_branch2b_res075 <- res5c_branch2b_res075
I0928 17:57:32.423354 19368 net.cpp:397] scale5c_branch2b_res075 -> res5c_branch2b_res075 (in-place)
I0928 17:57:32.423427 19368 layer_factory.hpp:77] Creating layer scale5c_branch2b_res075
I0928 17:57:32.423557 19368 net.cpp:150] Setting up scale5c_branch2b_res075
I0928 17:57:32.423561 19368 net.cpp:157] Top shape: 1 512 46 49 (1154048)
I0928 17:57:32.423564 19368 net.cpp:165] Memory required for data: 9565992988
I0928 17:57:32.423568 19368 net.cpp:514] Sharing parameters 'scale5c_branch2b_0' owned by layer 'scale5c_branch2b', param index 0
I0928 17:57:32.423573 19368 net.cpp:514] Sharing parameters 'scale5c_branch2b_1' owned by layer 'scale5c_branch2b', param index 1
I0928 17:57:32.423590 19368 layer_factory.hpp:77] Creating layer res5c_branch2b_relu_res075
I0928 17:57:32.423597 19368 net.cpp:106] Creating Layer res5c_branch2b_relu_res075
I0928 17:57:32.423614 19368 net.cpp:454] res5c_branch2b_relu_res075 <- res5c_branch2b_res075
I0928 17:57:32.423619 19368 net.cpp:397] res5c_branch2b_relu_res075 -> res5c_branch2b_res075 (in-place)
I0928 17:57:32.423636 19368 net.cpp:150] Setting up res5c_branch2b_relu_res075
I0928 17:57:32.423640 19368 net.cpp:157] Top shape: 1 512 46 49 (1154048)
I0928 17:57:32.423642 19368 net.cpp:165] Memory required for data: 9570609180
I0928 17:57:32.423660 19368 layer_factory.hpp:77] Creating layer res5c_branch2c_res075
I0928 17:57:32.423681 19368 net.cpp:106] Creating Layer res5c_branch2c_res075
I0928 17:57:32.423683 19368 net.cpp:454] res5c_branch2c_res075 <- res5c_branch2b_res075
I0928 17:57:32.423689 19368 net.cpp:411] res5c_branch2c_res075 -> res5c_branch2c_res075
I0928 17:57:32.425861 19368 net.cpp:150] Setting up res5c_branch2c_res075
I0928 17:57:32.425875 19368 net.cpp:157] Top shape: 1 2048 46 49 (4616192)
I0928 17:57:32.425879 19368 net.cpp:165] Memory required for data: 9589073948
I0928 17:57:32.425897 19368 net.cpp:514] Sharing parameters 'res5c_branch2c_0' owned by layer 'res5c_branch2c', param index 0
I0928 17:57:32.425901 19368 layer_factory.hpp:77] Creating layer bn5c_branch2c_res075
I0928 17:57:32.425927 19368 net.cpp:106] Creating Layer bn5c_branch2c_res075
I0928 17:57:32.425931 19368 net.cpp:454] bn5c_branch2c_res075 <- res5c_branch2c_res075
I0928 17:57:32.425937 19368 net.cpp:397] bn5c_branch2c_res075 -> res5c_branch2c_res075 (in-place)
I0928 17:57:32.426162 19368 net.cpp:150] Setting up bn5c_branch2c_res075
I0928 17:57:32.426167 19368 net.cpp:157] Top shape: 1 2048 46 49 (4616192)
I0928 17:57:32.426170 19368 net.cpp:165] Memory required for data: 9607538716
I0928 17:57:32.426174 19368 net.cpp:514] Sharing parameters 'bn5c_branch2c_0' owned by layer 'bn5c_branch2c', param index 0
I0928 17:57:32.426179 19368 net.cpp:514] Sharing parameters 'bn5c_branch2c_1' owned by layer 'bn5c_branch2c', param index 1
I0928 17:57:32.426183 19368 net.cpp:514] Sharing parameters 'bn5c_branch2c_2' owned by layer 'bn5c_branch2c', param index 2
I0928 17:57:32.426187 19368 layer_factory.hpp:77] Creating layer scale5c_branch2c_res075
I0928 17:57:32.426208 19368 net.cpp:106] Creating Layer scale5c_branch2c_res075
I0928 17:57:32.426211 19368 net.cpp:454] scale5c_branch2c_res075 <- res5c_branch2c_res075
I0928 17:57:32.426230 19368 net.cpp:397] scale5c_branch2c_res075 -> res5c_branch2c_res075 (in-place)
I0928 17:57:32.426265 19368 layer_factory.hpp:77] Creating layer scale5c_branch2c_res075
I0928 17:57:32.426364 19368 net.cpp:150] Setting up scale5c_branch2c_res075
I0928 17:57:32.426370 19368 net.cpp:157] Top shape: 1 2048 46 49 (4616192)
I0928 17:57:32.426373 19368 net.cpp:165] Memory required for data: 9626003484
I0928 17:57:32.426378 19368 net.cpp:514] Sharing parameters 'scale5c_branch2c_0' owned by layer 'scale5c_branch2c', param index 0
I0928 17:57:32.426383 19368 net.cpp:514] Sharing parameters 'scale5c_branch2c_1' owned by layer 'scale5c_branch2c', param index 1
I0928 17:57:32.426386 19368 layer_factory.hpp:77] Creating layer res5c_res075
I0928 17:57:32.426390 19368 net.cpp:106] Creating Layer res5c_res075
I0928 17:57:32.426394 19368 net.cpp:454] res5c_res075 <- res5b_res075_res5b_relu_res075_0_split_1
I0928 17:57:32.426399 19368 net.cpp:454] res5c_res075 <- res5c_branch2c_res075
I0928 17:57:32.426405 19368 net.cpp:411] res5c_res075 -> res5c_res075
I0928 17:57:32.426425 19368 net.cpp:150] Setting up res5c_res075
I0928 17:57:32.426431 19368 net.cpp:157] Top shape: 1 2048 46 49 (4616192)
I0928 17:57:32.426434 19368 net.cpp:165] Memory required for data: 9644468252
I0928 17:57:32.426439 19368 layer_factory.hpp:77] Creating layer res5c_relu_res075
I0928 17:57:32.426443 19368 net.cpp:106] Creating Layer res5c_relu_res075
I0928 17:57:32.426446 19368 net.cpp:454] res5c_relu_res075 <- res5c_res075
I0928 17:57:32.426450 19368 net.cpp:397] res5c_relu_res075 -> res5c_res075 (in-place)
I0928 17:57:32.426456 19368 net.cpp:150] Setting up res5c_relu_res075
I0928 17:57:32.426460 19368 net.cpp:157] Top shape: 1 2048 46 49 (4616192)
I0928 17:57:32.426462 19368 net.cpp:165] Memory required for data: 9662933020
I0928 17:57:32.426465 19368 layer_factory.hpp:77] Creating layer res5c_res075_res5c_relu_res075_0_split
I0928 17:57:32.426471 19368 net.cpp:106] Creating Layer res5c_res075_res5c_relu_res075_0_split
I0928 17:57:32.426476 19368 net.cpp:454] res5c_res075_res5c_relu_res075_0_split <- res5c_res075
I0928 17:57:32.426481 19368 net.cpp:411] res5c_res075_res5c_relu_res075_0_split -> res5c_res075_res5c_relu_res075_0_split_0
I0928 17:57:32.426486 19368 net.cpp:411] res5c_res075_res5c_relu_res075_0_split -> res5c_res075_res5c_relu_res075_0_split_1
I0928 17:57:32.426492 19368 net.cpp:411] res5c_res075_res5c_relu_res075_0_split -> res5c_res075_res5c_relu_res075_0_split_2
I0928 17:57:32.426498 19368 net.cpp:411] res5c_res075_res5c_relu_res075_0_split -> res5c_res075_res5c_relu_res075_0_split_3
I0928 17:57:32.426548 19368 net.cpp:150] Setting up res5c_res075_res5c_relu_res075_0_split
I0928 17:57:32.426553 19368 net.cpp:157] Top shape: 1 2048 46 49 (4616192)
I0928 17:57:32.426558 19368 net.cpp:157] Top shape: 1 2048 46 49 (4616192)
I0928 17:57:32.426560 19368 net.cpp:157] Top shape: 1 2048 46 49 (4616192)
I0928 17:57:32.426564 19368 net.cpp:157] Top shape: 1 2048 46 49 (4616192)
I0928 17:57:32.426568 19368 net.cpp:165] Memory required for data: 9736792092
I0928 17:57:32.426570 19368 layer_factory.hpp:77] Creating layer fc1_NYUdepth_c0
I0928 17:57:32.426578 19368 net.cpp:106] Creating Layer fc1_NYUdepth_c0
I0928 17:57:32.426587 19368 net.cpp:454] fc1_NYUdepth_c0 <- res5c_res5c_relu_0_split_0
I0928 17:57:32.426594 19368 net.cpp:411] fc1_NYUdepth_c0 -> fc1_NYUdepth_c0
I0928 17:57:32.428841 19368 net.cpp:150] Setting up fc1_NYUdepth_c0
I0928 17:57:32.428860 19368 net.cpp:157] Top shape: 1 40 61 65 (158600)
I0928 17:57:32.428865 19368 net.cpp:165] Memory required for data: 9737426492
I0928 17:57:32.428877 19368 layer_factory.hpp:77] Creating layer fc1_NYUdepth_c1
I0928 17:57:32.428894 19368 net.cpp:106] Creating Layer fc1_NYUdepth_c1
I0928 17:57:32.428900 19368 net.cpp:454] fc1_NYUdepth_c1 <- res5c_res5c_relu_0_split_1
I0928 17:57:32.428911 19368 net.cpp:411] fc1_NYUdepth_c1 -> fc1_NYUdepth_c1
I0928 17:57:32.431397 19368 net.cpp:150] Setting up fc1_NYUdepth_c1
I0928 17:57:32.431416 19368 net.cpp:157] Top shape: 1 40 61 65 (158600)
I0928 17:57:32.431421 19368 net.cpp:165] Memory required for data: 9738060892
I0928 17:57:32.431432 19368 layer_factory.hpp:77] Creating layer fc1_NYUdepth_c2
I0928 17:57:32.431445 19368 net.cpp:106] Creating Layer fc1_NYUdepth_c2
I0928 17:57:32.431452 19368 net.cpp:454] fc1_NYUdepth_c2 <- res5c_res5c_relu_0_split_2
I0928 17:57:32.431463 19368 net.cpp:411] fc1_NYUdepth_c2 -> fc1_NYUdepth_c2
I0928 17:57:32.434013 19368 net.cpp:150] Setting up fc1_NYUdepth_c2
I0928 17:57:32.446579 19368 net.cpp:157] Top shape: 1 40 61 65 (158600)
I0928 17:57:32.446589 19368 net.cpp:165] Memory required for data: 9738695292
I0928 17:57:32.446601 19368 layer_factory.hpp:77] Creating layer fc1_NYUdepth_c3
I0928 17:57:32.446615 19368 net.cpp:106] Creating Layer fc1_NYUdepth_c3
I0928 17:57:32.446621 19368 net.cpp:454] fc1_NYUdepth_c3 <- res5c_res5c_relu_0_split_3
I0928 17:57:32.446630 19368 net.cpp:411] fc1_NYUdepth_c3 -> fc1_NYUdepth_c3
I0928 17:57:32.448516 19368 net.cpp:150] Setting up fc1_NYUdepth_c3
I0928 17:57:32.448531 19368 net.cpp:157] Top shape: 1 40 61 65 (158600)
I0928 17:57:32.448534 19368 net.cpp:165] Memory required for data: 9739329692
I0928 17:57:32.448544 19368 layer_factory.hpp:77] Creating layer fc1_NYUdepth
I0928 17:57:32.448551 19368 net.cpp:106] Creating Layer fc1_NYUdepth
I0928 17:57:32.448555 19368 net.cpp:454] fc1_NYUdepth <- fc1_NYUdepth_c0
I0928 17:57:32.448560 19368 net.cpp:454] fc1_NYUdepth <- fc1_NYUdepth_c1
I0928 17:57:32.448565 19368 net.cpp:454] fc1_NYUdepth <- fc1_NYUdepth_c2
I0928 17:57:32.448568 19368 net.cpp:454] fc1_NYUdepth <- fc1_NYUdepth_c3
I0928 17:57:32.448572 19368 net.cpp:411] fc1_NYUdepth -> fc1_NYUdepth
I0928 17:57:32.448598 19368 net.cpp:150] Setting up fc1_NYUdepth
I0928 17:57:32.448603 19368 net.cpp:157] Top shape: 1 40 61 65 (158600)
I0928 17:57:32.448606 19368 net.cpp:165] Memory required for data: 9739964092
I0928 17:57:32.448609 19368 layer_factory.hpp:77] Creating layer fc1_NYUdepth_res05_c0
I0928 17:57:32.448618 19368 net.cpp:106] Creating Layer fc1_NYUdepth_res05_c0
I0928 17:57:32.448623 19368 net.cpp:454] fc1_NYUdepth_res05_c0 <- res5c_res05_res5c_relu_res05_0_split_0
I0928 17:57:32.448629 19368 net.cpp:411] fc1_NYUdepth_res05_c0 -> fc1_NYUdepth_res05_c0
I0928 17:57:32.450455 19368 net.cpp:150] Setting up fc1_NYUdepth_res05_c0
I0928 17:57:32.450467 19368 net.cpp:157] Top shape: 1 40 31 33 (40920)
I0928 17:57:32.450472 19368 net.cpp:165] Memory required for data: 9740127772
I0928 17:57:32.450477 19368 net.cpp:514] Sharing parameters 'fc1_NYUdepth_c0_w' owned by layer 'fc1_NYUdepth_c0', param index 0
I0928 17:57:32.450482 19368 net.cpp:514] Sharing parameters 'fc1_NYUdepth_c0_b' owned by layer 'fc1_NYUdepth_c0', param index 1
I0928 17:57:32.450485 19368 layer_factory.hpp:77] Creating layer fc1_NYUdepth_res05_c1
I0928 17:57:32.450495 19368 net.cpp:106] Creating Layer fc1_NYUdepth_res05_c1
I0928 17:57:32.450500 19368 net.cpp:454] fc1_NYUdepth_res05_c1 <- res5c_res05_res5c_relu_res05_0_split_1
I0928 17:57:32.450507 19368 net.cpp:411] fc1_NYUdepth_res05_c1 -> fc1_NYUdepth_res05_c1
I0928 17:57:32.452291 19368 net.cpp:150] Setting up fc1_NYUdepth_res05_c1
I0928 17:57:32.452306 19368 net.cpp:157] Top shape: 1 40 31 33 (40920)
I0928 17:57:32.452325 19368 net.cpp:165] Memory required for data: 9740291452
I0928 17:57:32.452332 19368 net.cpp:514] Sharing parameters 'fc1_NYUdepth_c1_w' owned by layer 'fc1_NYUdepth_c1', param index 0
I0928 17:57:32.452337 19368 net.cpp:514] Sharing parameters 'fc1_NYUdepth_c1_b' owned by layer 'fc1_NYUdepth_c1', param index 1
I0928 17:57:32.452342 19368 layer_factory.hpp:77] Creating layer fc1_NYUdepth_res05_c2
I0928 17:57:32.452350 19368 net.cpp:106] Creating Layer fc1_NYUdepth_res05_c2
I0928 17:57:32.452356 19368 net.cpp:454] fc1_NYUdepth_res05_c2 <- res5c_res05_res5c_relu_res05_0_split_2
I0928 17:57:32.452364 19368 net.cpp:411] fc1_NYUdepth_res05_c2 -> fc1_NYUdepth_res05_c2
I0928 17:57:32.454150 19368 net.cpp:150] Setting up fc1_NYUdepth_res05_c2
I0928 17:57:32.454164 19368 net.cpp:157] Top shape: 1 40 31 33 (40920)
I0928 17:57:32.454167 19368 net.cpp:165] Memory required for data: 9740455132
I0928 17:57:32.454172 19368 net.cpp:514] Sharing parameters 'fc1_NYUdepth_c2_w' owned by layer 'fc1_NYUdepth_c2', param index 0
I0928 17:57:32.454179 19368 net.cpp:514] Sharing parameters 'fc1_NYUdepth_c2_b' owned by layer 'fc1_NYUdepth_c2', param index 1
I0928 17:57:32.454181 19368 layer_factory.hpp:77] Creating layer fc1_NYUdepth_res05_c3
I0928 17:57:32.454191 19368 net.cpp:106] Creating Layer fc1_NYUdepth_res05_c3
I0928 17:57:32.454196 19368 net.cpp:454] fc1_NYUdepth_res05_c3 <- res5c_res05_res5c_relu_res05_0_split_3
I0928 17:57:32.454203 19368 net.cpp:411] fc1_NYUdepth_res05_c3 -> fc1_NYUdepth_res05_c3
I0928 17:57:32.455956 19368 net.cpp:150] Setting up fc1_NYUdepth_res05_c3
I0928 17:57:32.455971 19368 net.cpp:157] Top shape: 1 40 31 33 (40920)
I0928 17:57:32.455974 19368 net.cpp:165] Memory required for data: 9740618812
I0928 17:57:32.455981 19368 net.cpp:514] Sharing parameters 'fc1_NYUdepth_c3_w' owned by layer 'fc1_NYUdepth_c3', param index 0
I0928 17:57:32.455984 19368 net.cpp:514] Sharing parameters 'fc1_NYUdepth_c3_b' owned by layer 'fc1_NYUdepth_c3', param index 1
I0928 17:57:32.455988 19368 layer_factory.hpp:77] Creating layer fc1_NYUdepth_res05
I0928 17:57:32.455996 19368 net.cpp:106] Creating Layer fc1_NYUdepth_res05
I0928 17:57:32.456001 19368 net.cpp:454] fc1_NYUdepth_res05 <- fc1_NYUdepth_res05_c0
I0928 17:57:32.456005 19368 net.cpp:454] fc1_NYUdepth_res05 <- fc1_NYUdepth_res05_c1
I0928 17:57:32.456009 19368 net.cpp:454] fc1_NYUdepth_res05 <- fc1_NYUdepth_res05_c2
I0928 17:57:32.456013 19368 net.cpp:454] fc1_NYUdepth_res05 <- fc1_NYUdepth_res05_c3
I0928 17:57:32.456019 19368 net.cpp:411] fc1_NYUdepth_res05 -> fc1_NYUdepth_res05
I0928 17:57:32.456043 19368 net.cpp:150] Setting up fc1_NYUdepth_res05
I0928 17:57:32.456048 19368 net.cpp:157] Top shape: 1 40 31 33 (40920)
I0928 17:57:32.456050 19368 net.cpp:165] Memory required for data: 9740782492
I0928 17:57:32.456054 19368 layer_factory.hpp:77] Creating layer fc1_NYUdepth_res075_c0
I0928 17:57:32.456061 19368 net.cpp:106] Creating Layer fc1_NYUdepth_res075_c0
I0928 17:57:32.456066 19368 net.cpp:454] fc1_NYUdepth_res075_c0 <- res5c_res075_res5c_relu_res075_0_split_0
I0928 17:57:32.456071 19368 net.cpp:411] fc1_NYUdepth_res075_c0 -> fc1_NYUdepth_res075_c0
I0928 17:57:32.457849 19368 net.cpp:150] Setting up fc1_NYUdepth_res075_c0
I0928 17:57:32.457864 19368 net.cpp:157] Top shape: 1 40 46 49 (90160)
I0928 17:57:32.457868 19368 net.cpp:165] Memory required for data: 9741143132
I0928 17:57:32.457875 19368 net.cpp:514] Sharing parameters 'fc1_NYUdepth_c0_w' owned by layer 'fc1_NYUdepth_c0', param index 0
I0928 17:57:32.457880 19368 net.cpp:514] Sharing parameters 'fc1_NYUdepth_c0_b' owned by layer 'fc1_NYUdepth_c0', param index 1
I0928 17:57:32.457883 19368 layer_factory.hpp:77] Creating layer fc1_NYUdepth_res075_c1
I0928 17:57:32.457892 19368 net.cpp:106] Creating Layer fc1_NYUdepth_res075_c1
I0928 17:57:32.457897 19368 net.cpp:454] fc1_NYUdepth_res075_c1 <- res5c_res075_res5c_relu_res075_0_split_1
I0928 17:57:32.457906 19368 net.cpp:411] fc1_NYUdepth_res075_c1 -> fc1_NYUdepth_res075_c1
I0928 17:57:32.459703 19368 net.cpp:150] Setting up fc1_NYUdepth_res075_c1
I0928 17:57:32.459733 19368 net.cpp:157] Top shape: 1 40 46 49 (90160)
I0928 17:57:32.459738 19368 net.cpp:165] Memory required for data: 9741503772
I0928 17:57:32.459744 19368 net.cpp:514] Sharing parameters 'fc1_NYUdepth_c1_w' owned by layer 'fc1_NYUdepth_c1', param index 0
I0928 17:57:32.459749 19368 net.cpp:514] Sharing parameters 'fc1_NYUdepth_c1_b' owned by layer 'fc1_NYUdepth_c1', param index 1
I0928 17:57:32.459753 19368 layer_factory.hpp:77] Creating layer fc1_NYUdepth_res075_c2
I0928 17:57:32.459762 19368 net.cpp:106] Creating Layer fc1_NYUdepth_res075_c2
I0928 17:57:32.459767 19368 net.cpp:454] fc1_NYUdepth_res075_c2 <- res5c_res075_res5c_relu_res075_0_split_2
I0928 17:57:32.459776 19368 net.cpp:411] fc1_NYUdepth_res075_c2 -> fc1_NYUdepth_res075_c2
I0928 17:57:32.461566 19368 net.cpp:150] Setting up fc1_NYUdepth_res075_c2
I0928 17:57:32.461580 19368 net.cpp:157] Top shape: 1 40 46 49 (90160)
I0928 17:57:32.461583 19368 net.cpp:165] Memory required for data: 9741864412
I0928 17:57:32.461589 19368 net.cpp:514] Sharing parameters 'fc1_NYUdepth_c2_w' owned by layer 'fc1_NYUdepth_c2', param index 0
I0928 17:57:32.461593 19368 net.cpp:514] Sharing parameters 'fc1_NYUdepth_c2_b' owned by layer 'fc1_NYUdepth_c2', param index 1
I0928 17:57:32.461597 19368 layer_factory.hpp:77] Creating layer fc1_NYUdepth_res075_c3
I0928 17:57:32.461606 19368 net.cpp:106] Creating Layer fc1_NYUdepth_res075_c3
I0928 17:57:32.461611 19368 net.cpp:454] fc1_NYUdepth_res075_c3 <- res5c_res075_res5c_relu_res075_0_split_3
I0928 17:57:32.461619 19368 net.cpp:411] fc1_NYUdepth_res075_c3 -> fc1_NYUdepth_res075_c3
I0928 17:57:32.463382 19368 net.cpp:150] Setting up fc1_NYUdepth_res075_c3
I0928 17:57:32.463397 19368 net.cpp:157] Top shape: 1 40 46 49 (90160)
I0928 17:57:32.463400 19368 net.cpp:165] Memory required for data: 9742225052
I0928 17:57:32.463407 19368 net.cpp:514] Sharing parameters 'fc1_NYUdepth_c3_w' owned by layer 'fc1_NYUdepth_c3', param index 0
I0928 17:57:32.463410 19368 net.cpp:514] Sharing parameters 'fc1_NYUdepth_c3_b' owned by layer 'fc1_NYUdepth_c3', param index 1
I0928 17:57:32.463415 19368 layer_factory.hpp:77] Creating layer fc1_NYUdepth_res075
I0928 17:57:32.463421 19368 net.cpp:106] Creating Layer fc1_NYUdepth_res075
I0928 17:57:32.463426 19368 net.cpp:454] fc1_NYUdepth_res075 <- fc1_NYUdepth_res075_c0
I0928 17:57:32.463431 19368 net.cpp:454] fc1_NYUdepth_res075 <- fc1_NYUdepth_res075_c1
I0928 17:57:32.463435 19368 net.cpp:454] fc1_NYUdepth_res075 <- fc1_NYUdepth_res075_c2
I0928 17:57:32.463439 19368 net.cpp:454] fc1_NYUdepth_res075 <- fc1_NYUdepth_res075_c3
I0928 17:57:32.463445 19368 net.cpp:411] fc1_NYUdepth_res075 -> fc1_NYUdepth_res075
I0928 17:57:32.463469 19368 net.cpp:150] Setting up fc1_NYUdepth_res075
I0928 17:57:32.463474 19368 net.cpp:157] Top shape: 1 40 46 49 (90160)
I0928 17:57:32.463477 19368 net.cpp:165] Memory required for data: 9742585692
I0928 17:57:32.463480 19368 layer_factory.hpp:77] Creating layer fc1_NYUdepth_res05_interp
I0928 17:57:32.463486 19368 net.cpp:106] Creating Layer fc1_NYUdepth_res05_interp
I0928 17:57:32.463490 19368 net.cpp:454] fc1_NYUdepth_res05_interp <- fc1_NYUdepth_res05
I0928 17:57:32.463496 19368 net.cpp:411] fc1_NYUdepth_res05_interp -> fc1_NYUdepth_res05_interp
I0928 17:57:32.463516 19368 net.cpp:150] Setting up fc1_NYUdepth_res05_interp
I0928 17:57:32.463521 19368 net.cpp:157] Top shape: 1 40 61 65 (158600)
I0928 17:57:32.463526 19368 net.cpp:165] Memory required for data: 9743220092
I0928 17:57:32.463528 19368 layer_factory.hpp:77] Creating layer fc1_NYUdepth_res075_interp
I0928 17:57:32.463532 19368 net.cpp:106] Creating Layer fc1_NYUdepth_res075_interp
I0928 17:57:32.463536 19368 net.cpp:454] fc1_NYUdepth_res075_interp <- fc1_NYUdepth_res075
I0928 17:57:32.463541 19368 net.cpp:411] fc1_NYUdepth_res075_interp -> fc1_NYUdepth_res075_interp
I0928 17:57:32.463562 19368 net.cpp:150] Setting up fc1_NYUdepth_res075_interp
I0928 17:57:32.463567 19368 net.cpp:157] Top shape: 1 40 61 65 (158600)
I0928 17:57:32.463569 19368 net.cpp:165] Memory required for data: 9743854492
I0928 17:57:32.463585 19368 layer_factory.hpp:77] Creating layer fc_fusion
I0928 17:57:32.463591 19368 net.cpp:106] Creating Layer fc_fusion
I0928 17:57:32.463595 19368 net.cpp:454] fc_fusion <- fc1_NYUdepth
I0928 17:57:32.463599 19368 net.cpp:454] fc_fusion <- fc1_NYUdepth_res075_interp
I0928 17:57:32.463603 19368 net.cpp:454] fc_fusion <- fc1_NYUdepth_res05_interp
I0928 17:57:32.463608 19368 net.cpp:411] fc_fusion -> fc_fusion
I0928 17:57:32.463639 19368 net.cpp:150] Setting up fc_fusion
I0928 17:57:32.463644 19368 net.cpp:157] Top shape: 1 40 61 65 (158600)
I0928 17:57:32.463649 19368 net.cpp:165] Memory required for data: 9744488892
I0928 17:57:32.463651 19368 layer_factory.hpp:77] Creating layer fc1_interp
I0928 17:57:32.463655 19368 net.cpp:106] Creating Layer fc1_interp
I0928 17:57:32.463659 19368 net.cpp:454] fc1_interp <- fc_fusion
I0928 17:57:32.463665 19368 net.cpp:411] fc1_interp -> fc1_interp
I0928 17:57:32.463683 19368 net.cpp:150] Setting up fc1_interp
I0928 17:57:32.463687 19368 net.cpp:157] Top shape: 1 40 481 513 (9870120)
I0928 17:57:32.463690 19368 net.cpp:165] Memory required for data: 9783969372
I0928 17:57:32.463693 19368 layer_factory.hpp:77] Creating layer fc1_interp_fc1_interp_0_split
I0928 17:57:32.463698 19368 net.cpp:106] Creating Layer fc1_interp_fc1_interp_0_split
I0928 17:57:32.463701 19368 net.cpp:454] fc1_interp_fc1_interp_0_split <- fc1_interp
I0928 17:57:32.463707 19368 net.cpp:411] fc1_interp_fc1_interp_0_split -> fc1_interp_fc1_interp_0_split_0
I0928 17:57:32.463714 19368 net.cpp:411] fc1_interp_fc1_interp_0_split -> fc1_interp_fc1_interp_0_split_1
I0928 17:57:32.463719 19368 net.cpp:411] fc1_interp_fc1_interp_0_split -> fc1_interp_fc1_interp_0_split_2
I0928 17:57:32.463763 19368 net.cpp:150] Setting up fc1_interp_fc1_interp_0_split
I0928 17:57:32.463768 19368 net.cpp:157] Top shape: 1 40 481 513 (9870120)
I0928 17:57:32.463771 19368 net.cpp:157] Top shape: 1 40 481 513 (9870120)
I0928 17:57:32.463775 19368 net.cpp:157] Top shape: 1 40 481 513 (9870120)
I0928 17:57:32.463778 19368 net.cpp:165] Memory required for data: 9902410812
I0928 17:57:32.463780 19368 layer_factory.hpp:77] Creating layer fc1_interp_argmax
I0928 17:57:32.463786 19368 net.cpp:106] Creating Layer fc1_interp_argmax
I0928 17:57:32.463789 19368 net.cpp:454] fc1_interp_argmax <- fc1_interp_fc1_interp_0_split_0
I0928 17:57:32.463795 19368 net.cpp:411] fc1_interp_argmax -> fc1_interp_argmax
I0928 17:57:32.463816 19368 net.cpp:150] Setting up fc1_interp_argmax
I0928 17:57:32.463821 19368 net.cpp:157] Top shape: 1 1 481 513 (246753)
I0928 17:57:32.463824 19368 net.cpp:165] Memory required for data: 9903397824
I0928 17:57:32.463827 19368 layer_factory.hpp:77] Creating layer accuracy
I0928 17:57:32.463834 19368 net.cpp:106] Creating Layer accuracy
I0928 17:57:32.463836 19368 net.cpp:454] accuracy <- fc1_interp_fc1_interp_0_split_1
I0928 17:57:32.463840 19368 net.cpp:454] accuracy <- label_data_1_split_0
I0928 17:57:32.463847 19368 net.cpp:411] accuracy -> fc1_accuracy
I0928 17:57:32.463876 19368 net.cpp:150] Setting up accuracy
I0928 17:57:32.463881 19368 net.cpp:157] Top shape: 1 1 1 3 (3)
I0928 17:57:32.463883 19368 net.cpp:165] Memory required for data: 9903397836
I0928 17:57:32.463886 19368 layer_factory.hpp:77] Creating layer silence
I0928 17:57:32.463892 19368 net.cpp:106] Creating Layer silence
I0928 17:57:32.463896 19368 net.cpp:454] silence <- label_data_1_split_1
I0928 17:57:32.463901 19368 net.cpp:454] silence <- data_dim_data_2_split_0
I0928 17:57:32.463905 19368 net.cpp:150] Setting up silence
I0928 17:57:32.463907 19368 net.cpp:165] Memory required for data: 9903397836
I0928 17:57:32.463912 19368 layer_factory.hpp:77] Creating layer crf
I0928 17:57:32.463917 19368 net.cpp:106] Creating Layer crf
I0928 17:57:32.463920 19368 net.cpp:454] crf <- fc1_interp_fc1_interp_0_split_2
I0928 17:57:32.463923 19368 net.cpp:454] crf <- data_dim_data_2_split_1
I0928 17:57:32.463928 19368 net.cpp:454] crf <- data_data_0_split_3
I0928 17:57:32.463935 19368 net.cpp:411] crf -> crf_inf
I0928 17:57:32.511766 19368 net.cpp:150] Setting up crf
I0928 17:57:32.511808 19368 net.cpp:157] Top shape: 1 40 481 513 (9870120)
I0928 17:57:32.511813 19368 net.cpp:165] Memory required for data: 9942878316
I0928 17:57:32.511832 19368 layer_factory.hpp:77] Creating layer crf_inf_crf_0_split
I0928 17:57:32.511845 19368 net.cpp:106] Creating Layer crf_inf_crf_0_split
I0928 17:57:32.511852 19368 net.cpp:454] crf_inf_crf_0_split <- crf_inf
I0928 17:57:32.511888 19368 net.cpp:411] crf_inf_crf_0_split -> crf_inf_crf_0_split_0
I0928 17:57:32.511912 19368 net.cpp:411] crf_inf_crf_0_split -> crf_inf_crf_0_split_1
I0928 17:57:32.511934 19368 net.cpp:411] crf_inf_crf_0_split -> crf_inf_crf_0_split_2
I0928 17:57:32.512022 19368 net.cpp:150] Setting up crf_inf_crf_0_split
I0928 17:57:32.512028 19368 net.cpp:157] Top shape: 1 40 481 513 (9870120)
I0928 17:57:32.512033 19368 net.cpp:157] Top shape: 1 40 481 513 (9870120)
I0928 17:57:32.512037 19368 net.cpp:157] Top shape: 1 40 481 513 (9870120)
I0928 17:57:32.512055 19368 net.cpp:165] Memory required for data: 10061319756
I0928 17:57:32.512060 19368 layer_factory.hpp:77] Creating layer crf_inf_argmax
I0928 17:57:32.512081 19368 net.cpp:106] Creating Layer crf_inf_argmax
I0928 17:57:32.512086 19368 net.cpp:454] crf_inf_argmax <- crf_inf_crf_0_split_0
I0928 17:57:32.512107 19368 net.cpp:411] crf_inf_argmax -> crf_inf_argmax
I0928 17:57:32.512162 19368 net.cpp:150] Setting up crf_inf_argmax
I0928 17:57:32.512182 19368 net.cpp:157] Top shape: 1 1 481 513 (246753)
I0928 17:57:32.512185 19368 net.cpp:165] Memory required for data: 10062306768
I0928 17:57:32.512189 19368 layer_factory.hpp:77] Creating layer crf_mat
I0928 17:57:32.512212 19368 net.cpp:106] Creating Layer crf_mat
I0928 17:57:32.512215 19368 net.cpp:454] crf_mat <- crf_inf_crf_0_split_1
I0928 17:57:32.531989 19368 mat_write_layer.cpp:30] MatWrite will save a maximum of 1308 files.
I0928 17:57:32.532033 19368 net.cpp:150] Setting up crf_mat
I0928 17:57:32.532044 19368 net.cpp:165] Memory required for data: 10062306768
I0928 17:57:32.532057 19368 layer_factory.hpp:77] Creating layer crf_accuracy
I0928 17:57:32.532076 19368 net.cpp:106] Creating Layer crf_accuracy
I0928 17:57:32.532088 19368 net.cpp:454] crf_accuracy <- crf_inf_crf_0_split_2
I0928 17:57:32.532102 19368 net.cpp:454] crf_accuracy <- label_data_1_split_2
I0928 17:57:32.532115 19368 net.cpp:411] crf_accuracy -> crf_accuracy
I0928 17:57:32.532217 19368 net.cpp:150] Setting up crf_accuracy
I0928 17:57:32.532234 19368 net.cpp:157] Top shape: 1 1 1 3 (3)
I0928 17:57:32.532243 19368 net.cpp:165] Memory required for data: 10062306780
I0928 17:57:32.532251 19368 layer_factory.hpp:77] Creating layer silence
I0928 17:57:32.532263 19368 net.cpp:106] Creating Layer silence
I0928 17:57:32.532274 19368 net.cpp:454] silence <- crf_inf_argmax
I0928 17:57:32.532289 19368 net.cpp:150] Setting up silence
I0928 17:57:32.532297 19368 net.cpp:165] Memory required for data: 10062306780
…
